TIMEBAND/pretrained/sample/netD.pth (torch, 273763 bytes, 5 tensors)

weight_ih_l0 f4 [512, 2]
0	0xbb1f23ac	-0.0024282737
1	0xbed64080	-0.41846085
2	0x3e0ac4a9	0.13551582
3	0xbf4bb2ef	-0.79569906
4	0x3cf5d057	0.03000657
5	0xbf82de41	-1.0224077
6	0xbdb01b75	-0.08598987
7	0xbf0bf3e8	-0.54669046
8	0xbe2d80f5	-0.16943724
9	0x3c285982	0.010275247
10	0xbe9611fe	-0.29310602
11	0xbee2b568	-0.44279027
12	0x3e037d00	0.12840652
13	0xbf3c9743	-0.7366831
14	0xbd808324	-0.06275013
15	0xbe16729d	-0.14692159
16	0xbe8b3a53	-0.27192935
17	0xbef05a3e	-0.4694385
18	0xbe8a3737	-0.2699525
19	0xbf1c9d89	-0.6117788
20	0xbdd77bc4	-0.10521653
21	0xbe6e00e8	-0.23242533
22	0xbd83ddaf	-0.06438767
23	0x3ea954ae	0.33072418
24	0xbe6608a6	-0.22464237
25	0x3d1a62b0	0.037691772
26	0xbe196dff	-0.14983366
27	0xbe7840f8	-0.24243534
28	0xbef6200a	-0.4807132
29	0xbe8f12c7	-0.27944013
30	0xbde1198c	-0.10991201
31	0xbea69759	-0.32537344
32	0xbd47a21f	-0.048738595
33	0xbf3b5665	-0.731787
34	0xbe159dd9	-0.14610995
35	0xbe96e2ca	-0.294699
36	0xbd33c89b	-0.043892484
37	0x3e923691	0.28557256
38	0xbd66a2c1	-0.056307558
39	0xbf35c93e	-0.71010196
40	0xbeb40cf1	-0.35166124
41	0xbd536cf4	-0.051617578
42	0xbe94c484	-0.2905618
43	0xbd95cb7c	-0.07314202
44	0xbe631045	-0.22174175
45	0xbf1c9288	-0.6116109
46	0xbe0f891c	-0.14017147
47	0xbefd2376	-0.49441117
48	0x3e592316	0.2120479
49	0xbedeb505	-0.43497482
50	0x3e8ee0a3	0.2790576
51	0xbf2eca45	-0.6827739
52	0xbe186565	-0.14882429
53	0x3e56a85e	0.20962664
54	0xbb21b886	-0.0024676635
55	0x3e2b48ba	0.16726962
56	0xbccb9f19	-0.024856137
57	0x3e8f5c29	0.28
58	0xbe477f6a	-0.19482198
59	0xbea1add6	-0.3157794
60	0x3db11f7d	0.08648584
61	0x3e1d256c	0.15346307
62	0xbdc42c69	-0.09578783
63	0x3eac98bb	0.33710274
64	0xbcdaa1c9	-0.026688473
65	0xbf4aeab8	-0.792644
66	0xbd8c84a8	-0.0686124
67	0xbf607245	-0.8767436
68	0x3e24be55	0.16088231
69	0xbf455b4a	-0.7709242
70	0x3e0f4c33	0.13993911
71	0xbf49a616	-0.7876905
72	0x3dc82614	0.09772888
73	0x3e8fa1d0	0.2805314
74	0x3ce19c84	0.027540453
75	0x3d9246ae	0.07142387
76	0xbe9b0746	-0.30278987
77	0x3da18233	0.07886162
78	0xbeb36003	-0.3503419
79	0xbecc65b0	-0.3992133
80	0xbe21f801	-0.15817262
81	0x3e067126	0.131291
82	0xbe4f0e0b	-0.202202
83	0xba42e945	-0.00074352726
84	0xbe82896f	-0.2549548
85	0xbf1e9f66	-0.6196197
86	0xbd16c0b9	-0.03680489
87	0xbf139894	-0.5765469
88	0xbecd3c84	-0.40085232
89	0xbebe0973	-0.37116584
90	0xbd6ff791	-0.058585707
91	0xbf05e60a	-0.52304137
92	0x3dce85b5	0.10084096
93	0xbf017bc1	-0.5057946
94	0x3e23d65f	0.15999745
95	0xbf181698	-0.59409475
96	0xbedc801b	-0.43066487
97	0xbe8022f6	-0.25026673
98	0xbe871c4b	-0.26388773
99	0xbe4bb2b2	-0.19892386
100	0xbc5d8bec	-0.0135221295
101	0xbecfb9be	-0.40571398
102	0xbd197bdb	-0.037471633
103	0xbf228d32	-0.63496697
104	0xbe80fac7	-0.25191328
105	0xbe431f88	-0.19054997
106	0xbe05ab08	-0.13053524
107	0xbe2efc96	-0.17088541
108	0x3d864a86	0.06557183
109	0xbdba414b	-0.09094485
110	0xbe5b0f61	-0.21392585
111	0xbd8f58fa	-0.06999393
112	0xbdcbc0ec	-0.09948906
113	0xbc8d6ca5	-0.01726372
114	0x3e040e3c	0.12896055
115	0xbf0005c9	-0.5000883
116	0xbd533064	-0.05155982
117	0x3d8d0989	0.06886584
118	0xbec23745	-0.37932792
119	0xbe483ca2	-0.1955438
120	0xbf1cefdc	-0.61303496
121	0xbe44f4c7	-0.19234
122	0xbe9d70f9	-0.30750254
123	0x3dd5775f	0.10423159
124	0xbebbc3c6	-0.366728
125	0xbeabb373	-0.33535346
126	0xbea6625d	-0.3249692
127	0xbeb75ea1	-0.35814384
128	0x3e76c895	0.24099953
129	0xbf0d7a0e	-0.55264366
130	0x3d01a813	0.03165443
131	0xbdcb20b1	-0.09918345
132	0xbd68327a	-0.056688763
133	0xbe244fa2	-0.16046003
134	0xbe1c2c9d	-0.15251394
135	0xbedcb8a3	-0.43109617
136	0xbd030cd7	-0.031994667
137	0xba6681d0	-0.0008793147
138	0xbe83323a	-0.25624257
139	0xbe854804	-0.26031506
140	0x3e00638c	0.12537974
141	0xbf0a2ae2	-0.53971684
142	0xbe8dce4d	-0.27696458
143	0x3ed8644f	0.4226403
144	0x3c4a1dd0	0.012336209
145	0x3d09727d	0.03355645
146	0xbdc0fc3d	-0.09423111
147	0xbe81ead9	-0.25374487
148	0x3c75e173	0.015007365
149	0xbe01dc30	-0.12681651
150	0x3c023726	0.007947719
151	0xbf15c5b3	-0.5850479
152	0xbe342dbc	-0.17595571
153	0xbebc2512	-0.36747032
154	0x3ddfb40e	0.109230146
155	0xbf3147de	-0.69250286
156	0xbe94f2cc	-0.2909149
157	0xbf59e3f3	-0.8511345
158	0xbec017bc	-0.37518108
159	0xbee093ba	-0.43862706
160	0xbe25d813	-0.16195707
161	0xbe921f4b	-0.285395
162	0xbe4485c6	-0.19191656
163	0x3e3ade0f	0.18248771
164	0xbdfa94aa	-0.12235387
165	0xbe4fdd9d	-0.20299383
166	0xbe2abe94	-0.16674262
167	0xbe3cb17c	-0.1842708
168	0x3d3bc79d	0.045844663
169	0xbedff857	-0.43744156
170	0xbd584883	-0.052803528
171	0xbefb658c	-0.49100912
172	0xbe6dbb1d	-0.2321591
173	0xbee2e2f1	-0.44313768
174	0x3e278a8d	0.16361447
175	0xbecfce3b	-0.4058703
176	0x3ca15e10	0.019698173
177	0x3caaefdf	0.020866333
178	0xbdb5520a	-0.08853538
179	0xbd9944e0	-0.0748384
180	0xbea66e02	-0.32505804
181	0xbe9cd350	-0.3062997
182	0x3da25a50	0.07927382
183	0x3e5cf537	0.21577917
184	0x3cbfe681	0.023425343
185	0x3e7ece05	0.24883278
186	0xbe4a897c	-0.19779009
187	0xbe84e2be	-0.2595424
188	0xbe8bf21f	-0.2733316
189	0xbf22b99a	-0.63564456
190	0xbe6ed391	-0.23322894
191	0xbe543683	-0.2072392
192	0xbe98679d	-0.2976655
193	0xbf53856d	-0.82625467
194	0xbd9e6a41	-0.0773511
195	0x3dad042c	0.08448061
196	0xbe250be5	-0.16117819
197	0xbd91f88d	-0.071274854
198	0xbde7f3e1	-0.11325813
199	0x3dbe7763	0.09300115
200	0xbec8b6f0	-0.3920207
201	0xbf03b09a	-0.5144135
202	0xbee2879a	-0.4424408
203	0xbe9d54e3	-0.30728826
204	0xbe02c6c4	-0.12771136
205	0xbf03525d	-0.5129755
206	0x3dc8c1ab	0.09802564
207	0xbe9481da	-0.2900532
208	0xbdf9cade	-0.12196897
209	0xbe8d9799	-0.27654722
210	0xbee9303c	-0.45544612
211	0xbf0bde55	-0.54636127
212	0xbe104664	-0.14089352
213	0xbf3d46a6	-0.73935926
214	0xbe80a546	-0.25126094
215	0xbed39ae0	-0.41329098
216	0xbad46723	-0.0016205054
217	0xbf57e6d2	-0.8433658
218	0xbe97b421	-0.29629615
219	0xbecc02eb	-0.39845976
220	0xbd2d7d38	-0.042355746
221	0xbefc3fdc	-0.4926747
222	0xbea4ce98	-0.3218887
223	0xbe9f3f52	-0.31102997
224	0x3db30c98	0.087426364
225	0x3d29cc4f	0.04145461
226	0xbe055961	-0.13022377
227	0xbe77818e	-0.24170515
228	0xbe590565	-0.21193464
229	0xbe9fdbb6	-0.31222314
230	0xbea7a6e1	-0.32744506
231	0xbd91db15	-0.07121865
232	0xbe49c08d	-0.19702359
233	0xbed985fc	-0.42485034
234	0xbec5d9f0	-0.38642836
235	0xbde5c4e3	-0.11219194
236	0xbe1ec3ec	-0.15504426
237	0xbd235df7	-0.039884534
238	0xbee8c0f8	-0.45459723
239	0xbebd4612	-0.36967522
240	0x3b81ea54	0.0039647017
241	0xbf237d29	-0.63862854
242	0xbd6d9746	-0.058005594
243	0xbebd0193	-0.36915264
244	0x3d9bffbc	0.07617137
245	0xbf6e2529	-0.9302545
246	0xbe234974	-0.15945989
247	0xbf40d91a	-0.7533127
248	0x3ddbc130	0.10730207
249	0xbf047781	-0.5174485
250	0xbd81783c	-0.06321761
251	0x3db1a8f4	0.086748034
252	0x3e1bc184	0.15210539
253	0x3dd1661b	0.10224553
254	0xbe646067	-0.223024
255	0xbf0cf42e	-0.5506009

weight_hh_l0 f4 [512, 128]
0	0xbe0119e1	-0.12607528
1	0xbe5ac844	-0.21365458
2	0x3e5179fc	0.2045669
3	0x3e12063d	0.14260192
4	0xbbfeb082	-0.007772506
5	0xbe3efb38	-0.1865052
6	0xbe503145	-0.20331295
7	0xbe1be20f	-0.15222953
8	0x3d6ef180	0.05833578
9	0x3e10958c	0.14119548
10	0xbd1e37a5	-0.038627286
11	0x3bef3b03	0.007300736
12	0x3dca3d36	0.09874956
13	0xbe585309	-0.21125425
14	0x3ded525f	0.11587977
15	0xbcee17ec	-0.029064141
16	0x3e75729f	0.23969506
17	0xbe02604e	-0.1273205
18	0x3cae1d45	0.021254191
19	0x3e27b188	0.16376317
20	0xbd871ea2	-0.065976396
21	0x3dfc6cfd	0.12325475
22	0xbdc5d567	-0.09659844
23	0x3d745de9	0.059659872
24	0x3e2170df	0.15765713
25	0x3e2198f8	0.15781009
26	0xbcaa0d16	-0.020758193
27	0xbe4e45d4	-0.20143825
28	0x3dae9ed1	0.085263856
29	0xbeab8ec4	-0.3350736
30	0x3d82d855	0.06388918
31	0xbcb74f7a	-0.022376765
32	0x3e7a2cd3	0.24431162
33	0xbede4155	-0.4340922
34	0x3e1e32e1	0.15449096
35	0x3e9d5f4b	0.30736765
36	0xbd2d69c3	-0.04233719
37	0xbc85e87a	-0.016346205
38	0xbc50ea32	-0.012751149
39	0x3e260d1b	0.16215937
40	0xbde5d544	-0.11222318
41	0x3d89247e	0.066964135
42	0x3e3f9f9c	0.1871323
43	0xbe46ea1a	-0.1942524
44	0xbd6b1e97	-0.05740222
45	0xbcb5031c	-0.02209621
46	0xbe85e821	-0.26153663
47	0x3c2af467	0.010434247
48	0x3da7793f	0.08177423
49	0xbd986116	-0.07440393
50	0x3e8a3cef	0.26999614
51	0x3e33889d	0.17532583
52	0xbd40bd0e	-0.047055297
53	0xbd2997d8	-0.041404575
54	0x3d8abee6	0.06774692
55	0x3c9f9b08	0.019483104
56	0xbe4511d4	-0.19245082
57	0x3e70c89a	0.23514023
58	0xb853085e	-5.0314113e-05
59	0x3e3d5dd2	0.18492821
60	0xbdac2282	-0.08405019
61	0xbcf1307e	-0.029442068
62	0xbd53df51	-0.051726643
63	0xbd57a2f0	-0.052645624
64	0x3e2941f1	0.16529061
65	0xbc91f225	-0.017815659
66	0xbc23a4a2	-0.009987982
67	0x3d9b3832	0.07579078
68	0xbcd4e240	-0.02598679
69	0x3e7237d2	0.23654106
70	0xbe3d5272	-0.18488482
71	0xbd4bf633	-0.04979534
72	0xbd75296a	-0.05985395
73	0xbd7d0198	-0.061769098
74	0xbdb417e3	-0.087936185
75	0xbd354d79	-0.044263337
76	0x3e068eb6	0.13140377
77	0xbe789685	-0.24276169
78	0x3d434299	0.047670934
79	0xbd4a0ea3	-0.049330365
80	0xbc0f418e	-0.008743657
81	0x3cadefc8	0.0212325
82	0xbdd98301	-0.1062069
83	0x3d868071	0.06567467
84	0xbe27ae1b	-0.1637501
85	0x3e493198	0.19647825
86	0xbc420fe8	-0.011844613
87	0xbe39f62b	-0.18160312
88	0x3d3cbe0f	0.04607969
89	0xbcc5d037	-0.024147136
90	0x3aeff638	0.0018307632
91	0xbd3ee327	-0.046603348
92	0xbc9a73e2	-0.018854085
93	0xbc87135b	-0.016488722
94	0x3e18223f	0.14856814
95	0xbdd00aac	-0.101582855
96	0xbb8b4a25	-0.004250782
97	0xbe32da14	-0.17466003
98	0x3e189224	0.14899498
99	0xbe200083	-0.15625195
100	0x3e3219c1	0.17392637
101	0xbde3c7b1	-0.111220725
102	0xbe6ab363	-0.22919993
103	0x3e346876	0.17617974
104	0x3dc69400	0.096961975
105	0xbe06e3a6	-0.13172778
106	0xbe31da56	-0.17368445
107	0x3d73ecb4	0.05955191
108	0xbe31334d	-0.17304726
109	0xbe7fec78	-0.2499255
110	0x3e07d8f9	0.13266362
111	0x3c40071d	0.011720446
112	0x3d94482b	0.072403274
113	0xbd3b00f9	-0.045655224
114	0x3da7cdae	0.08193527
115	0xbdfa3fd7	-0.12219208
116	0x3b46849e	0.0030291448
117	0x3dd9270f	0.10603153
118	0x3d297236	0.041368686
119	0x3e7ee2f1	0.24891259
120	0xbe12fe3f	-0.143548
121	0x3da9aae9	0.08284552
122	0x3e633e78	0.22191799
123	0x3e7e4d70	0.24834228
124	0xbe78cfc3	-0.24298005
125	0x3d4f921b	0.050676446
126	0x3c65e02f	0.0140305
127	0xbe7c87e6	-0.24661216
128	0xbe6fb65b	-0.23409407
129	0xbef420ae	-0.47681183
130	0x3eebe0fe	0.46070093
131	0x3eadc0d4	0.3393618
132	0xbe37f833	-0.17965774
133	0xbe8597d2	-0.26092392
134	0xbed34d1b	-0.41269764
135	0xbd1d5698	-0.03841266
136	0xbe0be0b3	-0.13659935
137	0x3ec2f3a8	0.3807652
138	0xbe444391	-0.191664
139	0x3d81c5a1	0.06336523
140	0x3dd14801	0.10218812
141	0xbe96662a	-0.2937482
142	0x3d48f169	0.04905835
143	0x3da39f22	0.079893366
144	0x3f0a2ea3	0.5397741
145	0xbece43d8	-0.40286136
146	0x3d83da13	0.06438079
147	0x3ed625d9	0.4182575
148	0xbe698f0e	-0.22808477
149	0x3e5cef22	0.21575597
150	0xbe5b067b	-0.21389191
151	0x3eae6fc0	0.34069633
152	0x3e9eb680	0.3099861
153	0x3f0be0dd	0.5463999
154	0x3e3d6762	0.18496469
155	0xbe36dddd	-0.17858072
156	0x3e41cb16	0.18925127
157	0xbf0d52fb	-0.55204743
158	0xbdc63892	-0.09678759
159	0x3e35c69e	0.17751548
160	0x3f024249	0.50882393
161	0xbf1ae7b5	-0.60509807
162	0x3f02d32f	0.5110349
163	0x3f01c258	0.5068717
164	0x3e481434	0.19538957
165	0x3dc17446	0.094460055
166	0x3e3934d0	0.18086553
167	0x3eaa95f7	0.3331754
168	0xba1668a6	-0.000573764
169	0x3dfcb339	0.123388715
170	0x3e9040d2	0.28174454
171	0xbec3e7aa	-0.38262683
172	0xbe0aa2fa	-0.13538733
173	0xbeba3800	-0.3637085
174	0xbecb3c14	-0.39694273
175	0x3e436c7b	0.19084351
176	0x3ca1582d	0.019695366
177	0xbbe278fc	-0.006911395
178	0x3f2397e1	0.63903624
179	0x3f048719	0.5176864
180	0x3da61767	0.081099324
181	0xbe05fd0d	-0.13084812
182	0x3eb607a7	0.35552713
183	0x3e21eb22	0.15812352
184	0xbeb43766	-0.35198516
185	0x3f002d00	0.50068665
186	0xbe016299	-0.12635268
187	0x3eea1fbe	0.45727342
188	0xbea9d761	-0.33172134
189	0xbe89897c	-0.26862705
190	0xbeae65ec	-0.34062135
191	0xbe0a6e98	-0.1351875
192	0x3efc472b	0.49273047
193	0x3d9cb165	0.07651023
194	0x3d9813ba	0.074256375
195	0x3e8e610e	0.27808422
196	0x3ddf94b3	0.10917034
197	0x3e985ab2	0.29756695
198	0xbe9b466e	-0.3032717
199	0xbd889824	-0.066696435
200	0xbde7582a	-0.11296113
201	0x3cca9af7	0.024732096
202	0xbe07ee4e	-0.132745
203	0xbe612e2e	-0.21990272
204	0x3eb04911	0.34430745
205	0xbee35615	-0.44401613
206	0x3e1df290	0.15424562
207	0xbcb5c032	-0.022186372
208	0x3d3f4004	0.04669191
209	0x3dbda344	0.09259656
210	0xbe8c9a0e	-0.27461284
211	0xbd8bbadc	-0.0682275
212	0xbeedb18e	-0.46424526
213	0x3ed3b553	0.41349277
214	0xbe2d3b1f	-0.16917084
215	0xbed2cbe3	-0.41171178
216	0x3da3db4f	0.08000814
217	0x3e219653	0.1578
218	0xbdb48738	-0.088148534
219	0xbe204c43	-0.15654092
220	0xbdab4091	-0.083619244
221	0x3e721e94	0.23644477
222	0x3e7fac66	0.24968109
223	0xbd4d865f	-0.050176974
224	0x3e8097c7	0.25115797
225	0xbe73a018	-0.2379154
226	0x3e48b4f9	0.19600286
227	0xbe97695c	-0.2957257
228	0x3ed0504b	0.4068626
229	0xbf02c795	-0.5108579
230	0xbefa2ae6	-0.48860854
231	0x3ed81541	0.42203715
232	0x3e654b2e	0.2239196
233	0xbe6c959a	-0.23103943
234	0xbea18368	-0.31545568
235	0x3f03e652	0.51523316
236	0xbe990918	-0.2988975
237	0xbe9da5ef	-0.3079066
238	0x3ef40fa4	0.47668183
239	0x3df01348	0.117224276
240	0x3e1d0957	0.15335594
241	0xbeb53ea8	-0.35399365
242	0x3f082a28	0.53189325
243	0xbe80bde8	-0.25144887
244	0x3e4f2e77	0.20232569
245	0x3ea7560e	0.32682842
246	0x3eb2db91	0.3493314
247	0x3f16d25e	0.58914745
248	0xbecb7537	-0.39737865
249	0x3e47248b	0.19447534
250	0x3eeedbec	0.46652162
251	0x3f0ae3c0	0.5425377
252	0xbee14c21	-0.44003394
253	0x3e1e2071	0.15442063
254	0xbe0fa36c	-0.14027184
255	0xbed46ada	-0.4148777

bias_ih_l0 f4 [512]
0	0x3e33fa71	0.17576005
1	0x3ed2a942	0.41144758
2	0x3e971ee7	0.29515764
3	0x3e9a786c	0.3017
4	0x3eaff906	0.34369677
5	0x3e936ec5	0.28795448
6	0x3e6adae3	0.22935061
7	0x3f005d7f	0.50142664
8	0x3e7f7e6e	0.24950573
9	0x3ec4bae0	0.38423824
10	0x3e8b0581	0.27152637
11	0x3e4eb79d	0.2018723
12	0x3e8a2420	0.26980686
13	0x3e6461e8	0.22302973
14	0x3f024c60	0.5089779
15	0x3f1b65d6	0.60702264
16	0x3f5885b5	0.8457902
17	0x3e92cdd0	0.28672647
18	0x3e076b42	0.1322451
19	0x3ecc6c0e	0.3992619
20	0x3e6f9a11	0.23398615
21	0x3e106381	0.14100458
22	0x3ead0eb5	0.33800283
23	0x3e9b20ba	0.30298406
24	0x3e7dc89c	0.24783558
25	0x3ea7f400	0.32803345
26	0x3e2bc771	0.167753
27	0x3edfc5e8	0.43705678
28	0x3e978de0	0.2960043
29	0x3ef6b655	0.48185983
30	0x3de0bf40	0.10973978
31	0x3e61eada	0.22062245
32	0x3f5ffb47	0.87492794
33	0x3f1f2a50	0.6217394
34	0x3e6b5662	0.22982171
35	0x3f40263b	0.75058335
36	0x3e31f3b9	0.17378129
37	0x3e7c4244	0.24634653
38	0x3e5a9f0d	0.21349736
39	0x3eaf4c7c	0.3423804
40	0x3e6725d6	0.22573027
41	0x3e5e3e1d	0.21703382
42	0x3e6dd32e	0.2322509
43	0x3e5b210a	0.21399322
44	0x3ec8f837	0.39251873
45	0x3e935278	0.28773856
46	0x3efc62cc	0.49294126
47	0x3e08bc08	0.13352978
48	0x3ea81709	0.32830074
49	0x3e3945a7	0.18092977
50	0x3f0b64b3	0.5445053
51	0x3ec9d638	0.39421248
52	0x3e887e0e	0.26658672
53	0x3e93c2ed	0.28859654
54	0x3e9ee55d	0.31034365
55	0x3e090b3d	0.13383193
56	0x3e91af74	0.28454173
57	0x3e65c9b7	0.2244023
58	0x3e70ad68	0.23503649
59	0x3ec70561	0.3887129
60	0x3e9701ce	0.29493564
61	0x3e4f9127	0.20270215
62	0x3e511993	0.20419912
63	0x3eb307ce	0.34966892
64	0x3e971f38	0.29516006
65	0x3e645c85	0.22300918
66	0x3ea071ca	0.31336814
67	0x3dd78453	0.10523286
68	0x3e3dccdc	0.18535179
69	0x3e942610	0.2893529
70	0x3e145095	0.14483865
71	0x3ebd6aaf	0.36995456
72	0x3e281af8	0.16416538
73	0x3e057c33	0.1303566
74	0x3e244d8c	0.16045207
75	0x3e9c941b	0.30581746
76	0x3e6eadeb	0.23308532
77	0x3e87cf94	0.26525557
78	0x3e773468	0.24141085
79	0x3ea8ebb3	0.32992324
80	0x3e804f60	0.25060558
81	0x3e7fcfa4	0.24981552
82	0x3e63c75f	0.22244023
83	0x3e4ad9f0	0.19809699
84	0x3ef5d273	0.48012123
85	0x3ea1ff77	0.31640217
86	0x3ecc10be	0.39856523
87	0x3e53b630	0.20674968
88	0x3db4f2b4	0.088353544
89	0x3e5e458c	0.21706218
90	0x3e8129cd	0.25227204
91	0x3de73538	0.112894475
92	0x3e5cf70a	0.21578613
93	0x3ea30c9d	0.3184556
94	0x3ec56d93	0.3856016
95	0x3e97a511	0.29618123
96	0x3e879e18	0.26487803
97	0x3e35fe58	0.17772806
98	0x3e6bba37	0.23020254
99	0x3e9a25a0	0.3010683
100	0x3ecbb1ca	0.3978408
101	0x3f1d19a5	0.61367255
102	0x3e94a6d3	0.29033527
103	0x3e797665	0.2436157
104	0x3e974048	0.2954123
105	0x3ea72a63	0.32649526
106	0x3ebc2c44	0.36752522
107	0x3ec540c5	0.38525978
108	0x3f1c8a64	0.6114867
109	0x3ea92ce1	0.33042052
110	0x3f0e78b6	0.5565294
111	0x3e8a3917	0.2699668
112	0x3e7e4d2a	0.24834123
113	0x3e3860d3	0.18005686
114	0x3ebf9d3a	0.37424642
115	0x3e9899b7	0.29804775
116	0x3eaf7f2c	0.34276712
117	0x3e952c86	0.2913553
118	0x3e08678c	0.1332075
119	0x3f1654c0	0.5872307
120	0x3eb0191e	0.34394163
121	0x3e565665	0.20931394
122	0x3ecda632	0.4016586
123	0x3eeed44a	0.4664634
124	0x3ea2bd71	0.31785157
125	0x3e67063b	0.2256097
126	0x3e562613	0.20912962
127	0x3ee352ce	0.44399112
128	0x3d388370	0.045047224
129	0xbe1e691c	-0.15469784
130	0xbe02a1d8	-0.12757051
131	0xbdfe1c53	-0.12407746
132	0xbbd0591e	-0.00635828
133	0xbe127a28	-0.14304411
134	0xbd8a65c5	-0.06757692
135	0xbeb3314a	-0.34998542
136	0xbb75406c	-0.0037422432
137	0xbd977f66	-0.07397346
138	0x3dde499e	0.10853885
139	0x3cfb803e	0.0307008
140	0xbd341aef	-0.043971
141	0x3be3eb05	0.0069555067
142	0x3dd44578	0.103648126
143	0x3e0a5bbd	0.13511558
144	0xbd72597b	-0.059167366
145	0xbd79b895	-0.060967047
146	0x3d1fda02	0.039026268
147	0x3dad8f06	0.08474545
148	0x3dbe737a	0.09299369
149	0xbcd6a4e5	-0.026201675
150	0xbbe9aecd	-0.0071314336
151	0xbc22cac2	-0.009936037
152	0x3c163a98	0.009169243
153	0xbd1e1c05	-0.03860094
154	0x3bd9f0df	0.0066510285
155	0xbe26ac20	-0.16276598
156	0xbdb362d7	-0.087590866
157	0xbe334426	-0.17506465
158	0xbda5e1b7	-0.08099692
159	0x3d824773	0.06361284
160	0xbe2ab346	-0.1666995
161	0xbcd2d78f	-0.025737552
162	0xba1b02d2	-0.0005913201
163	0xbe39b492	-0.18135288
164	0xbc639453	-0.013890344
165	0xbc11dfd5	-0.008903463
166	0x3e1a0ba3	0.15043502
167	0x3c2f8717	0.01071336
168	0xbd8bdbd2	-0.06829037
169	0xbd8f2df3	-0.06991186
170	0xbdb748f0	-0.089494586
171	0xbcb90b58	-0.022588417
172	0x3e27630d	0.16346379
173	0x3d892caa	0.06697972
174	0x3dae45a0	0.08509374
175	0x3d2ec6fa	0.042670228
176	0x3d8a68d7	0.06758278
177	0x3d708deb	0.058729094
178	0xbd8b6750	-0.06806815
179	0xbdcd9277	-0.100377016
180	0xbcec74b2	-0.028864238
181	0x3cbc6a72	0.022999976
182	0x3c542389	0.012947925
183	0x3d4532d4	0.048144177
184	0x3d6a0b38	0.057139605
185	0xbd62e99d	-0.055398572
186	0x3c996bb8	0.018728122
187	0x3d1ebb29	0.03875271
188	0x3da392df	0.07986998
189	0xbd32684b	-0.043556493
190	0x3dae9436	0.08524363
191	0x3c4d97e7	0.012548423
192	0x3c2eed61	0.010676713
193	0x3d441f02	0.047881134
194	0x3da2632b	0.07929071
195	0x3c8637ad	0.01638397
196	0xbda53477	-0.080666475
197	0xbd70012f	-0.05859488
198	0xbdef0fbd	-0.11672924
199	0xbdec7ecc	-0.11547622
200	0xbe04cda0	-0.12969065
201	0x3dd24086	0.10266213
202	0xbd81dc3a	-0.06340833
203	0x3d9cfd47	0.07665496
204	0x3db54fcb	0.0885311
205	0xbe1419a7	-0.1446291
206	0xbde1ce5b	-0.11025687
207	0xbc33a04b	-0.01096351
208	0x3d3ed8c2	0.046593435
209	0xbd928483	-0.07154181
210	0xbc17ce57	-0.009265504
211	0x3c36d715	0.011159678
212	0xbd2308a9	-0.03980318
213	0xbd84c068	-0.06482011
214	0x3c95851b	0.018251946
215	0xbe1341f0	-0.14380622
216	0xbdc92981	-0.09822369
217	0xbddcf104	-0.107881576
218	0x3c2d5081	0.010578276
219	0x3d01e819	0.031715486
220	0xbdc68beb	-0.09694656
221	0x3db6fc5f	0.08934855
222	0xbb610972	-0.0034337905
223	0x39bf22fa	0.00036456418
224	0xbde4c64b	-0.11170634
225	0x3cfdcaf4	0.030980565
226	0xbd9af363	-0.075659536
227	0x3cbbf551	0.022944124
228	0x3e274f8e	0.16338941
229	0x3e073df4	0.13207227
230	0xbc8666d0	-0.016406447
231	0xbcb0d98a	-0.021588106
232	0xbd8a5a95	-0.067555584
233	0xbca66e07	-0.020316137
234	0xbdc6e3f9	-0.09711451
235	0x3da226c4	0.0791755
236	0xbe50aae6	-0.20377693
237	0xbded4764	-0.11585882
238	0xbc972fa6	-0.018455338
239	0x3dc1f8ef	0.094713084
240	0x3dc908bf	0.09816121
241	0x3cbcc317	0.023042245
242	0x3d3d91d3	0.046281647
243	0x3dd7da33	0.10539665
244	0xbc379e9c	-0.011207249
245	0x3d0c50ec	0.03425686
246	0xbd3cef1f	-0.04612648
247	0x3d75ec68	0.060039908
248	0xbc203487	-0.0097781485
249	0x3d636b6a	0.05552236
250	0xbdc32496	-0.095284626
251	0x3d271a0a	0.040796317
252	0xbdfb86be	-0.122815594
253	0xbc1d1782	-0.009588124
254	0xbd5fb478	-0.054615468
255	0xbd4d4e1c	-0.05012332

bias_hh_l0 f4 [512]
0	0x3e25de3b	0.16198055
1	0x3e9afbf1	0.3027034
2	0x3ec698b5	0.3878838
3	0x3e558c4b	0.20854299
4	0x3e8e7867	0.27826235
5	0x3e16edf9	0.14739217
6	0x3e7af393	0.24506979
7	0x3eff67fb	0.49884018
8	0x3e249989	0.16074194
9	0x3ea438ea	0.32074672
10	0x3e5cd5c5	0.21565922
11	0x3e5d2672	0.21596697
12	0x3e8fce5b	0.28087124
13	0x3e8d2f59	0.27575186
14	0x3eed081f	0.46295258
15	0x3f08ddce	0.5346345
16	0x3f56d237	0.8391451
17	0x3e8b7208	0.27235436
18	0x3e6b19e9	0.22959103
19	0x3eb5f291	0.35536626
20	0x3e8360f9	0.25659922
21	0x3dd7f203	0.10544207
22	0x3edfb6b6	0.43694085
23	0x3eae7708	0.3407519
24	0x3e926ca8	0.28598523
25	0x3e7d5924	0.24741036
26	0x3e805f21	0.25072578
27	0x3ee4d25a	0.44691736
28	0x3ea5c5cb	0.32377467
29	0x3ee61f10	0.44945574
30	0x3e48e2cf	0.1961777
31	0x3e64d00c	0.22344989
32	0x3f52f922	0.82411397
33	0x3f1c61c0	0.61086655
34	0x3e5876a0	0.21139002
35	0x3f14fc0f	0.5819711
36	0x3e7aec61	0.24504234
37	0x3e6feb96	0.23429713
38	0x3e91e9d2	0.28498703
39	0x3eb8c8db	0.3609074
40	0x3e5fa9a6	0.2184206
41	0x3e71ffff	0.23632811
42	0x3eb34d45	0.3501989
43	0x3e296303	0.16541676
44	0x3eb0e09e	0.3454637
45	0x3ea69632	0.32536465
46	0x3eea3468	0.45743108
47	0x3e189258	0.14899576
48	0x3ea5a10b	0.3234943
49	0x3e2bd193	0.16779165
50	0x3ed46324	0.41481888
51	0x3e9d7596	0.30753773
52	0x3eb14a70	0.34627104
53	0x3e5c12d3	0.21491556
54	0x3e7d4e1f	0.24736832
55	0x3e27c38f	0.16383193
56	0x3ebb3d32	0.36570126
57	0x3e91bc55	0.28463998
58	0x3e04d159	0.12970485
59	0x3ec7f2a9	0.39052323
60	0x3ecb1144	0.3966161
61	0x3e726bd6	0.23673949
62	0x3e8ce6df	0.2751989
63	0x3ed48056	0.41504163
64	0x3e97766a	0.2958253
65	0x3e4552d4	0.19269878
66	0x3e929b6e	0.28634208
67	0x3e742df8	0.2384566
68	0x3d2c5758	0.042075485
69	0x3e67d350	0.22639203
70	0x3e806d61	0.2508345
71	0x3ed356b2	0.4127708
72	0x3e662f90	0.22479081
73	0x3db7fc8f	0.089837186
74	0x3e59d784	0.21273619
75	0x3e80d98d	0.25165978
76	0x3e8d5e6e	0.27611107
77	0x3eb73e70	0.35789824
78	0x3e5a15ad	0.21297331
79	0x3e8f33ff	0.27969357
80	0x3e18c248	0.14917862
81	0x3ea5efbf	0.32409474
82	0x3eafbc0d	0.3432316
83	0x3e799bf5	0.24375899
84	0x3eaf5112	0.3424154
85	0x3e858450	0.2607751
86	0x3ea76096	0.32690877
87	0x3e88641a	0.2663887
88	0x3e5e5eb9	0.21715821
89	0x3e43ec8d	0.19133206
90	0x3e7d67ab	0.24746577
91	0x3e6f8085	0.2338887
92	0x3de450ae	0.11148201
93	0x3e84c406	0.25930804
94	0x3eadba4a	0.3393119
95	0x3ea3ae72	0.3196903
96	0x3e8643cb	0.26223597
97	0x3e5e6cc4	0.21721178
98	0x3e8f7edf	0.28026482
99	0x3ed54b6b	0.41659102
100	0x3ee43752	0.44573456
101	0x3f1a635b	0.60307854
102	0x3ea77b7a	0.32711393
103	0x3e49b398	0.19697416
104	0x3e6e54b3	0.23274498
105	0x3ed1316f	0.40858027
106	0x3eaba65c	0.3352536
107	0x3ed96aa3	0.4246417
108	0x3f3da5f0	0.74081326
109	0x3e94d33a	0.29067403
110	0x3ee68213	0.45021114
111	0x3e8c3fd2	0.2739244
112	0x3e346c7b	0.17619507
113	0x3e0692fe	0.1314201
114	0x3ea37cc3	0.31931123
115	0x3ee5fc52	0.44919068
116	0x3e9917f0	0.29901075
117	0x3e9e84fb	0.3096083
118	0x3db5a58d	0.08869467
119	0x3f165d3e	0.58736026
120	0x3e7f083c	0.24905485
121	0x3e6c4692	0.23073795
122	0x3edd0851	0.43170407
123	0x3f173aef	0.590743
124	0x3e998cb0	0.2999015
125	0x3ea2080c	0.31646764
126	0x3e36ddd6	0.17858061
127	0x3f19b213	0.60037345
128	0x3d4035c6	0.046926282
129	0xbd7c361c	-0.06157504
130	0xbde3deb7	-0.11126464
131	0x3d3f5d88	0.046720058
132	0xbd4337c9	-0.047660623
133	0xbdd308f2	-0.103044406
134	0xbd8cfb9b	-0.068839274
135	0xbe96e81d	-0.29473963
136	0x3e19ee8d	0.15032406
137	0xbdba1927	-0.09086829
138	0x3d90a6da	0.070630744
139	0x3c6bb60c	0.014386665
140	0xba31e94e	-0.0006786779
141	0x3d9b3221	0.07577921
142	0x3c869822	0.016429964
143	0x3e173b13	0.14768629
144	0x3cdbde82	0.026839498
145	0xbd46632a	-0.048434414
146	0xbc61d0d6	-0.0137827005
147	0xbc976c04	-0.018484123
148	0x3da7c974	0.08192721
149	0x3d311945	0.04323699
150	0x3da96476	0.082711145
151	0x3d2bbb52	0.04192669
152	0xbd3b1bdd	-0.04568087
153	0x3dcaec67	0.099083714
154	0x3c47860c	0.012177955
155	0xbe375570	-0.17903686
156	0xbcbb3363	-0.022851652
157	0xbe37f4d8	-0.17964494
158	0x3cc7bd7f	0.024382351
159	0x3d7b731b	0.06138907
160	0xbde4d446	-0.111733004
161	0x3e036463	0.12831263
162	0xbdc12086	-0.094300315
163	0xbce9cd57	-0.028540296
164	0xbcad6701	-0.02116728
165	0x3cb6e1f8	0.022324547
166	0x3cf7a147	0.03022827
167	0x3bd476ce	0.006483889
168	0xbd53cb9f	-0.05170786
169	0xbd49c5dd	-0.049260963
170	0xbddeaad5	-0.108724274
171	0x3c18a36f	0.009316309
172	0x3e20af90	0.15691972
173	0x3cbe6075	0.023239354
174	0x3dabbeec	0.08386025
175	0x3c5a6d66	0.013331747
176	0xbd3e1ac4	-0.046412244
177	0x3dd95d31	0.10613478
178	0x3d0e6998	0.03476867
179	0xbe209702	-0.15682605
180	0x3d41660b	0.047216456
181	0xb8994e02	-7.3101386e-05
182	0x3d930918	0.07179469
183	0xbd9d1eda	-0.076719
184	0xbc5a7250	-0.013332918
185	0x3cca34e6	0.024683427
186	0xbd8b695a	-0.068072036
187	0x3baa2b6d	0.005193165
188	0x3e012564	0.1261192
189	0x3c525541	0.012837709
190	0xbd2b324c	-0.041796014
191	0x3ce1246c	0.027483188
192	0x3d2fb0ba	0.04289315
193	0x3d6924cd	0.05691986
194	0x3d8067e7	0.06269818
195	0xbd0dbf9d	-0.034606565
196	0xbdaa395c	-0.08311722
197	0x3d307c90	0.043087542
198	0xbdc9c2d6	-0.09851615
199	0xbd3105ee	-0.043218546
200	0x3c8c5847	0.017131938
201	0x3d4790cc	0.048722073
202	0xbd3c8f76	-0.046035253
203	0xbd652b7b	-0.05594967
204	0x3d2c93d6	0.042133175
205	0xbe18780d	-0.14889546
206	0xbe72697f	-0.23673056
207	0xbdd207a4	-0.102553636
208	0xbca9d83e	-0.020732995
209	0xbdd4820c	-0.10376367
210	0x3a3d768e	0.0007227444
211	0xbd477be1	-0.048702125
212	0xbe2726a9	-0.16323341
213	0x3ac315c8	0.0014883811
214	0xbc6f9764	-0.014623497
215	0xbe16de94	-0.14733344
216	0xbd7bf8a9	-0.061516438
217	0xbd878f0e	-0.066190824
218	0xbdada9a1	-0.0847962
219	0xbd0f5509	-0.034993205
220	0xbddfc241	-0.10925723
221	0x3dbb0b95	0.091330685
222	0xbde037a7	-0.10948115
223	0xbe1c2921	-0.15250064
224	0xbcf249e2	-0.029576246
225	0xbd0d1f36	-0.034453593
226	0xbe1f591a	-0.15561333
227	0x3bbf63b2	0.005840742
228	0x3e1377ff	0.14401244
229	0x3cd3baff	0.025846003
230	0xbd9b30e2	-0.07577683
231	0xbdc1a2be	-0.09454869
232	0xbd0fdd12	-0.03512294
233	0x3c0fef44	0.008785073
234	0xbd8d3d6e	-0.068964824
235	0x3e06f6f0	0.13180137
236	0xbdd3da07	-0.1034432
237	0xbd977a87	-0.07396417
238	0xbdafedbd	-0.08590267
239	0x3cec0f66	0.028815936
240	0xbd256a4c	-0.040384576
241	0xbda60c60	-0.08107829
242	0x3d25e202	0.04049874
243	0x3e570e33	0.2100151
244	0x3dd11b37	0.10210269
245	0x3db44b5a	0.08803435
246	0xbd4fa1d8	-0.050691456
247	0x3df6970e	0.1204053
248	0xbd461e18	-0.048368543
249	0xbd0391f3	-0.03212161
250	0xbd8012f0	-0.06253612
251	0x3cefb5ac	0.029261433
252	0xbdcfa7c6	-0.10139422
253	0xbb009558	-0.0019620266
254	0x3daa6443	0.08319905
255	0xbd8b688c	-0.0680705

weight f4 [1, 128]
0	0xbdc3fdb4	-0.095698744
1	0xbee89730	-0.45427847
2	0x3f48f324	0.78496003
3	0x3ed76b18	0.42073894
4	0xbd957493	-0.072976254
5	0xbf210760	-0.6290188
6	0xbeea7ebe	-0.45799822
7	0xbfb4af60	-1.411602
8	0xbe94acbe	-0.29038042
9	0x3f4a3ed9	0.7900215
10	0x3e7e191b	0.24814264
11	0xbd920aea	-0.07130988
12	0xbe2f1b15	-0.17100175
13	0xbeb3b607	-0.35099813
14	0x3f230685	0.63681823
15	0x3e8f4097	0.27978966
16	0xbdd61615	-0.104534306
17	0x3d1de642	0.03854967
18	0x3dc1ef99	0.09469528
19	0x3f102f6f	0.5632238
20	0x3ec14ecd	0.37755433
21	0xbe512d60	-0.20427465
22	0xbe850fdd	-0.25988665
23	0x3ea9b6f8	0.33147407
24	0x3e023762	0.1271644
25	0x3ee16dd6	0.4402911
26	0xbc154ced	-0.009112579
27	0xbf24ca82	-0.643715
28	0x3e2f6e3b	0.17131893
29	0x3e1339a7	0.14377461
30	0xbde30c22	-0.110862985
31	0xbecf061f	-0.40434358
32	0x3f54b942	0.8309518
33	0xbd1f51db	-0.038896423
34	0x3f1c2a55	0.61002094
35	0x3deb443b	0.11487623
36	0x3e92ec57	0.28695938
37	0x3d737800	0.059440613
38	0xbed68031	-0.41894677
39	0x3eaa520f	0.3326573
40	0x3e790bfb	0.24320976
41	0x3ef03bc8	0.4692061
42	0x3f41a405	0.756409
43	0xbec3fca6	-0.38278693
44	0xbf337613	-0.7010204
45	0xbec1ef73	-0.37877998
46	0x3df29eef	0.118467204
47	0x3f0970ba	0.5368763
48	0x3f64bcd2	0.89350617
49	0xbf2652f8	-0.6497035
50	0xbdf60444	-0.12012532
51	0x3eb38483	0.35062036
52	0xbf441783	-0.76598376
53	0x3e574778	0.21023357
54	0xbc5e776c	-0.013578277
55	0xbe70998a	-0.2349607
56	0x3e565ce0	0.20933867
57	0x3eb4ddb6	0.35325402
58	0xbe194f07	-0.14971553
59	0xbe4a9a70	-0.19785476
60	0x3edc0166	0.42969817
61	0xbd833a1a	-0.06407566
62	0xbdd09b85	-0.10185913
63	0xbf546b6a	-0.829764
64	0x3efacdc7	0.4898512
65	0x3e010d3a	0.12602702
66	0x3eacb57b	0.3373221
67	0x3ecd6b82	0.40121084
68	0x3d671372	0.05641503
69	0x3ec4df77	0.3845174
70	0xbecc9abe	-0.3996181
71	0xbdb44814	-0.0880281
72	0xbef4de1f	-0.47825715
73	0xbdb12d38	-0.08651203
74	0xbdb7f832	-0.089828864
75	0xbf1543c4	-0.5830653
76	0x3e472cb8	0.19450653
77	0xbee7a740	-0.4524479
78	0x3f0962e9	0.5366655
79	0xbf547fca	-0.8300749
80	0x3e44ad84	0.19206816
81	0xbf662b55	-0.8990987
82	0xbee63486	-0.44961947
83	0xbe6013eb	-0.21882598
84	0xbe2bd25b	-0.16779463
85	0x3ea0addb	0.3138264
86	0xbe8ea34e	-0.27858967
87	0xbe9f3251	-0.31093076
88	0x3dceb8e4	0.10093859
89	0x3d8ea297	0.06964605
90	0xbf27711d	-0.6540697
91	0xbdb96e9f	-0.090543024
92	0x3d27c17c	0.040956005
93	0x3e8df35a	0.27724725
94	0x3f5a336b	0.8523471
95	0xbf62fea4	-0.886698
96	0x3ee6f95c	0.4511212
97	0x3e0e2c46	0.13884076
98	0x3d7a7b08	0.061152488
99	0x3e92e186	0.28687686
100	0xbf0c8055	-0.5488332
101	0x3e2907d3	0.16506891
102	0xbe887184	-0.26649106
103	0x3db63465	0.08896712
104	0x3e91a7f0	0.2844844
105	0xbed577c7	-0.41692945
106	0xbf0a9316	-0.54130685
107	0xbe8d4a23	-0.27595624
108	0xbeebbb25	-0.46041217
109	0xbf1ba393	-0.6079647
110	0xbe69e8b9	-0.22842683
111	0x3f24412b	0.6416194
112	0x3e4cbd41	0.1999407
113	0x3e2e9ca3	0.1705194
114	0xbe2701ed	-0.16309328
115	0x3eda4f8c	0.42638814
116	0x3eeade2e	0.45872635
117	0xbdb0053c	-0.085947484
118	0xbe82b1cd	-0.25526276
119	0xbed2bde6	-0.41160506
120	0xbf0deb2f	-0.55436987
121	0xbdd4b742	-0.10386516
122	0x3f379251	0.71707636
123	0x3f39812f	0.72462744
124	0xbe8f0da2	-0.2794009
125	0x3de4a103	0.11163523
126	0xbe4eff95	-0.20214684
127	0xbf5405ac	-0.82821155
