TIMEBAND/pretrained/sample/netD.pth (torch, 273763 bytes, 5 tensors)

weight_ih_l0 f4 [512, 2]
0.05374506 -0.3516131 0.38847515 -1.1046271 0.37737373 -1.6036487 -0.08936184 -1.0417005
-0.41947 -0.021648765 -0.67397213 -0.3427771 0.34889 -0.9039827 -0.4677656 -0.15554501
-0.41598904 -0.9757603 -0.4736673 -0.70146203 -0.24075107 -0.702269 -0.33256674 0.49928567
-0.1680592 -0.6439869 -0.021648942 -0.48524997 -0.7954489 -0.43143174 0.12982026 -0.5518487
-0.11522924 -0.82031876 -0.44487074 -0.43090302 -0.3238073 0.27399594 0.011430931 -0.8181666
-0.45456055 -0.78317666 -0.66459656 -0.39117965 -0.12057568 -1.0977069 0.00779325 -0.6817953
0.30071044 -0.6391958 0.5175865 -1.0168135 -0.54580957 0.39721847 0.12189804 -0.122740544
-0.16531998 0.20306307 -0.19011074 -0.32214123 -0.06399071 0.09412104 -0.07369749 -0.34923398
-0.08070036 -0.645871 0.13146722 -0.8081798 0.29134497 -0.98401225 0.21576057 -0.8396547
0.1325094 -0.18720353 -0.35039842 0.09669189 -0.43418238 -0.44945836 -0.2845428 -0.7601029
-0.10700602 -0.20980772 -0.50329566 -0.7472806 -0.29880407 -0.9850189 0.031881556 -0.7108839
-0.5238464 -0.47868562 0.036420327 -0.59164375 0.20915361 -0.6219425 0.30596498 -0.757592
-0.63930595 -0.22250013 -0.45157784 -0.10392083 -0.04741032 -0.5022375 -0.06177278 -0.6277851
-0.48022845 -0.11480825 -0.50441474 -0.6004951 -0.32049954 -0.20142914 -0.8142751 -0.40865502
-0.50181955 -0.09544317 0.08992985 -0.50158757 -0.14425984 -0.1811696 -0.7777427 -0.50022835
-0.7342134 -0.62236345 -0.5879814 0.11942447 -0.49963036 -0.52989906 -0.48008296 -0.37789407
0.40418133 -0.87982553 -0.048942685 -0.29142618 0.010469014 -0.74318916 -0.34018582 -0.15735163
-0.1808801 -0.0026175252 -0.50779164 -0.27745232 0.31994653 -0.8724939 -0.50643504 0.40626594
-0.11092537 -0.7506867 -0.084581584 -0.46771884 0.067945875 -0.029700156 0.062356453 -0.65566486
-0.20063096 -0.6704907 0.31501567 -1.1292253 -0.3515733 -1.4077262 -0.36590403 -1.046643
-0.09146531 -0.73138434 -0.6210897 -0.35987368 -0.02691189 -0.725317 -0.08030778 -0.55476373
-0.22694956 -0.61737305 -0.12018085 -0.5516704 -0.058208916 -0.8578419 0.16368584 -0.40600795
-0.31651127 -0.0327452 -0.5027417 -0.20108639 -0.66243494 0.035236064 -0.22785343 0.23734067
-0.3741575 0.4610897 -0.02547866 -0.7056002 -0.35400546 -1.0344588 -0.45802554 -0.8498863
-0.2754071 -1.2324865 -0.5822787 0.0034078683 -0.6952003 -0.3366013 -0.54108924 -0.09189319
-0.4069008 -1.0073639 -0.81072867 -0.3765589 -0.19305187 -1.0754191 -0.19617976 -0.43143076
-0.027431443 -0.8303651 -0.39295375 -0.90088516 0.012110857 -1.1225221 -0.19046926 -0.7789898
0.19245836 -1.1496197 -0.7087613 -0.40586522 -0.2210072 -0.7253932 -0.45530793 -0.15126099
0.08200834 -0.16919832 -0.59288764 -0.85097605 -0.24112895 -0.70228595 -0.5042549 -0.48643255
-0.123921074 -0.7771105 -0.6549995 -0.42435607 -0.7402974 -0.4164966 -0.42489985 -0.82835436
0.043912075 -0.84742624 -0.42883825 -1.1062436 0.1988686 -1.0869893 -0.0073543605 -1.021256
0.12942241 -0.7001114 -0.32658038 0.16707191 0.10814963 -0.057734136 -0.5528889 -0.25811103
00000000: c823 5c3d a206 b4be 37e6 c63e 6c64 8dbf
00000010: 2137 c13e 5c44 cdbf 5703 b7bd 7156 85bf
00000020: c6c4 d6be c058 b1bc 7089 2cbf 7b80 afbe
00000030: b6a1 b23e 696b 67bf f97e efbe 3147 1fbe
00000040: 84fc d4be 6dcb 79bf 8584 f2be 0493 33bf
00000050: 7387 76be e7c7 33bf 3046 aabe 5fa2 ff3e
00000060: b617 2cbe 53dc 24bf 1f59 b1bc af72 f8be
00000070: 8aa2 4bbf 9fe4 dcbe 9aef 043e f545 0dbf
00000080: 4ffd ebbd 6900 52bf 19c6 e3be 529f dcbe
00000090: 12ca a5be 3249 8c3e cd48 3b3c 5e73 51bf
000000a0: 29bc e8be 447e 48bf 0023 2abf b348 c8be
000000b0: 62f0 f6bd a981 8cbf 855e ff3b 238a 2ebf
000000c0: b8f6 993e 56a2 23bf 8d80 043f f226 82bf
000000d0: 2dba 0bbf 3860 cb3e aea5 f93d 655f fbbd
000000e0: a449 29be c4ef 4f3e 64ac 42be b2ef a4be
000000f0: 900d 83bd 88c2 c03d b6ee 96bd ccce b2be
00000100: 3b46 a5bd cd57 25bf 589f 063e dfe4 4ebf
00000110: 2b2b 953e 3ae8 7bbf 57f0 5c3e 9cf3 56bf
00000120: 8bb0 073e 48b2 3fbe 6c67 b3be 6606 c63d
00000130: 274d debe 681f e6be 98af 91be 1b96 42bf
00000140: f925 dbbd d6d7 56be fcd7 00bf c84d 3fbf
00000150: d9fc 98be 332a 7cbf 3c96 023d 7dfc 35bf
00000160: cc1a 06bf 4816 f5be 7b2d 153d f775 17bf
00000170: 5d2c 563e a037 1fbf 71a7 9c3e 8df1 41bf
00000180: 8ea9 23bf 13d7 63be 3635 e7be 72d4 d4bd
00000190: 5331 42bd a392 00bf 7405 7dbd 86b6 20bf
000001a0: 81e0 f5be 9620 ebbd 5321 01bf 0cba 19bf
000001b0: 8418 a4be 7143 4ebe 5574 50bf 3b3b d1be
000001c0: 3f77 00bf b577 c3bd 242d b83d 0b68 00bf
000001d0: dab8 13be 8684 39be 251a 47bf f70e 00bf
000001e0: 69f5 3bbf 3653 1fbf f385 16bf d194 f43d
000001f0: 8dcf ffbe 77a7 07bf 6fcd f5be 557b c1be
00000200: dbf0 ce3e 3f3c 61bf 2078 48bd d035 95be
00000210: 3a86 2b3c a541 3ebf d62c aebe c920 21be
00000220: a238 39be c98a 2bbb a2fe 01bf 3b0e 8ebe
00000230: 08d0 a33e c35b 5fbf baa5 01bf 1702 d03e
00000240: d72c e3bd 012d 40bf 1c39 adbd d878 efbe
00000250: 3527 8b3d be4d f3bc 7b69 7f3d a7d9 27bf
00000260: 3472 4dbe 47a5 2bbf bc49 a13e 748a 90bf
00000270: 6a01 b4be 5f30 b4bf c657 bbbe 66f8 85bf
00000280: 2a52 bbbd 013c 3bbf bcff 1ebf 5d41 b8be
00000290: 5376 dcbc 60ae 39bf 6878 a4bd ff04 0ebf
000002a0: 7765 68be 290c 1ebf 6121 f6bd 453a 0dbf
000002b0: 796c 6ebd 879b 5bbf 439d 273e 46e0 cfbe
000002c0: c40d a2be d51f 06bd aeb3 00bf 97e9 4dbe
000002d0: 5695 29bf b153 103d 6952 69be 6f09 733e
000002e0: 9291 bfbe f313 ec3e 9fb8 d0bc 37a2 34bf
000002f0: 3440 b5be 2569 84bf 5382 eabe 2692 59bf
00000300: 2902 8dbe 1ec2 9dbf 3810 15bf 8b56 5f3b
00000310: a6f8 31bf 0157 acbe d384 0abf 7f32 bcbd
00000320: 4d55 d0be 4df1 80bf ea8b 4fbf 54cc c0be
00000330: 64af 45be 55a7 89bf 59e3 48be 7ee4 dcbe
00000340: e8b7 e0bc cf92 54bf 3c31 c9be 69a0 66bf
00000350: 9e6c 463c ceae 8fbf 600a 43be e06b 47bf
00000360: ce13 453e bd26 93bf 6171 35bf 91cd cfbe
00000370: b64f 62be 5eb3 39bf 1f1e e9be 29e4 1abe
00000380: fdf3 a73d 5342 2dbe 7cc7 17bf 91d9 59bf
00000390: 82ea 76be 03c9 33bf d916 01bf b00d f9be
000003a0: 55ca fdbd b7f0 46bf 0cae 27bf 3345 d9be
000003b0: 2184 3dbf 0b3f d5be 798c d9be 080f 54bf
000003c0: 26dd 333d edf0 58bf b090 dbbe 6499 8dbf
000003d0: 36a4 4b3e 7722 8bbf d9fc f0bb 84b8 82bf
000003e0: 4f87 043e 803a 33bf 8b35 a7be e614 2b3e
000003f0: 8e7d dd3d a17a 6cbd 208a 0dbf 2127 84be

weight_hh_l0 f4 [512, 128]
-0.12307213 -0.21789037 0.18989357 0.15344897 0.006514225 -0.19655068 -0.2175524 -0.16084649
0.09436425 0.14448455 -0.0011557279 -0.035458416 0.12549047 -0.19303839 0.1135997 -0.062110953
0.19863632 -0.100747146 -0.013437386 0.15865767 -0.06879735 0.110302545 -0.08977415 0.051736392
0.15373603 0.16242315 -0.044806957 -0.19440165 0.065446876 -0.25025573 0.07355736 -0.021750633
0.24146174 -0.3753291 0.15904936 0.29357556 -0.083847076 -0.041453775 -0.0078362785 0.1535822
-0.13915966 0.04290387 0.17789769 -0.20288697 -0.046029646 -0.027624259 -0.25379324 0.020783897
0.069831856 -0.059953716 0.24148339 0.17984334 -0.034374546 0.012090705 0.05010574 0.0028758987
-0.12705518 0.23602934 0.006521173 0.15633537 -0.09278769 -0.0048126546 -0.031625137 -0.03593197
0.16724011 -0.023922471 -0.019199507 0.08316967 -0.050846368 0.25958985 -0.19627947 -0.024930228
-0.050490286 0.008155401 -0.1565254 -0.05191644 0.12282933 -0.23158203 -0.016757136 -0.019463597
-0.038946807 0.019029308 -0.10220864 0.085629985 -0.14890195 0.19780691 -0.0010591232 -0.18037437
0.016154949 -0.058165416 -0.027919706 0.0043075075 0.042151462 -0.03606373 0.14596412 -0.10553328
-0.011788082 -0.105805054 0.05947192 -0.068750694 0.18051021 -0.09722271 -0.21978584 0.16794357
0.09879886 -0.091458544 -0.1488462 0.044682972 -0.11270462 -0.24599798 0.0834905 -0.0012057609
0.066413015 -0.013337099 0.06342416 -0.13829547 -0.0027264184 0.08900477 0.029723058 0.25317752
-0.14325458 0.07152624 0.21966377 0.24874943 -0.2445077 0.0049494095 0.013543837 -0.23836629
-0.22452192 -0.4638848 0.4209905 0.33592963 -0.11235788 -0.2933727 -0.42715108 -0.05377409
-0.07293883 0.36465544 -0.16748624 -0.0036315469 0.085172586 -0.22415663 0.029841118 0.026051419
0.4626584 -0.19230175 0.004196606 0.3119827 -0.30636403 0.11396087 -0.17667028 0.27337795
0.29403377 0.5497728 0.111851834 -0.108756274 0.13741454 -0.3682083 -0.04902821 0.22438666
0.51651645 -0.52376306 0.48209435 0.48824358 0.15295583 0.019298756 0.25000897 0.26371852
-0.040157802 0.067552716 0.14911559 -0.38404927 -0.04803766 -0.29840633 -0.39319038 0.19328263
-0.009368249 0.0017789922 0.49170557 0.52626187 0.090946965 -0.020062868 0.26249155 0.036948718
-0.24609725 0.50992596 -0.09183001 0.31996828 -0.49183297 -0.19416489 -0.2393259 -0.096699215
0.47589117 0.031911206 0.029726187 0.2973369 0.058064207 0.32221794 -0.31100413 0.007840255
-0.07357338 0.12669203 -0.21279906 -0.20770964 0.2700731 -0.3934424 0.03217693 0.09659892
-0.033594765 0.061133265 -0.23033425 0.008565632 -0.34671742 0.38176534 -0.095340535 -0.41857553
0.012245065 0.0713962 -0.15599144 -0.08874487 0.0016149062 0.14969073 0.16954027 -0.035368517
0.19900511 -0.12539014 0.06431946 -0.16024266 0.4863197 -0.41773075 -0.4480778 0.34772635
0.18372075 -0.07391995 -0.24649759 0.49607486 -0.20551266 -0.292012 0.3794553 0.115724385
0.11643162 -0.18126138 0.5032096 -0.37705392 0.1236812 0.22683458 0.25364274 0.6493862
-0.3318891 0.1765283 0.40801343 0.49650726 -0.42260703 0.08390116 -0.10686556 -0.44421506
00000000: 3e0d fcbd a71e 5fbe 7673 423e ba21 1d3e
00000010: 4875 d53b 9544 49be 0ec6 5ebe f1b4 24be
00000020: 0b42 c13d c2f3 133e cb7b 97ba d83c 11bd
00000030: 9380 003e dbab 45be f6a6 e83d 0e68 7ebd
00000040: 5267 4b3e 8554 cebd 7b28 5cbc 2877 223e
00000050: a0e5 8cbd 4de6 e13d 82db b7bd 8ae9 533d
00000060: fa6c 1d3e 4152 263e 8087 37bd 3a11 47be
00000070: 0309 863d 8521 80be 3ea5 963d 622e b2bc
00000080: bf41 773e 232b c0be d6dd 223e 894f 963e
00000090: 04b8 abbd 6fcb 29bd bc63 00bc a744 1d3e
000000a0: df7f 0ebe f8bb 2f3d d02a 363e 9ac1 4fbe
000000b0: 9589 3cbd 454c e2bc 30f1 81be fe42 aa3c
000000c0: 0104 8f3d 0792 75bd 6c47 773e da28 383e
000000d0: 53cc 0cbd 1818 463c ad3b 4d3d 9379 3c3b
000000e0: c11a 02be adb1 713e 90af d53b 6116 203e
000000f0: 7907 bebd 79b3 9dbb 5c89 01bd 672d 13bd
00000100: fe40 2b3e 0ff9 c3bc 4948 9dbc dc54 aa3d
00000110: 4844 50bd f6e8 843e 7cfd 48be 7a3a ccbc
00000120: e7ce 4ebd 3b9e 053c 3248 20be 55a6 54bd
00000130: f28d fb3d d723 6dbe 4346 89bc 1f72 9fbc
00000140: b086 1fbd 5ae3 9b3c c352 d1bd c65e af3d
00000150: c179 18be e58d 4a3e 47d2 8aba 0fb4 38be
00000160: 6257 843c dc3e 6ebd deb7 e4bc fe25 8d3b
00000170: 03a7 2c3d 90b7 13bd 9e77 153e d521 d8bd
00000180: cd22 41bc 52b0 d8bd d498 733d 2acd 8cbd
00000190: abd7 383e b31c c7bd 8a0f 61be 66f9 2b3e
000001a0: 0f57 ca3d 9e4e bbbd 236b 18be 7e05 373d
000001b0: aed1 e6bd e5e6 7bbe 11fd aa3d 9f0a 9eba
000001c0: 8c03 883d d983 5abc 87e4 813d 549d 0dbe
000001d0: b6ad 32bb 2248 b63d c57d f33c 7ca0 813e
000001e0: 54b1 12be 597c 923d 8aef 603e 2cb8 7e3e
000001f0: 3a60 7abe a82e a23b f8e6 5d3c 4b16 74be
00000200: 13e9 65be 4f82 edbe 118c d73e f8fe ab3e
00000210: e31b e6bd f234 96be 8cb3 dabe 3842 5cbd
00000220: f460 95bd 1eb4 ba3e 8381 2bbe 3fff 6dbb
00000230: f76e ae3d 5189 65be 5c75 f43c c969 d53c
00000240: 90e1 ec3e c0ea 44be af83 893b 32bc 9f3e
00000250: bfdb 9cbe 5164 e93d 0ee9 34be 32f8 8b3e
00000260: 988b 963e e9bd 0c3f 9312 e53d 9cbb debd
00000270: 66b6 0c3e cc85 bcbe ced1 48bd 9ec5 653e
00000280: 6c3a 043f 5615 06bf 12d5 f63e 10fb f93e
00000290: 74a0 1c3e 6d18 9e3c 2d01 803e 1d06 873e
000002a0: 827c 24bd 1459 8a3d c2b1 183e 1ba2 c4be
000002b0: 23c3 44bd b7c8 98be 4050 c9be e2eb 453e
000002c0: 497d 19bc 132d e93a d5c0 fb3e 19b9 063f
000002d0: 6742 ba3d e25a a4bc 4b65 863e 8a57 173d
000002e0: eb00 7cbe 828a 023f 5f11 bcbd e2d2 a33e
000002f0: 88d1 fbbe 29d3 46be d911 75be 3d0a c6bd
00000300: 02a8 f33e 53b5 023d 5584 f33c 8b3c 983e
00000310: bcd4 6d3d c0f9 a43e ef3b 9fbe 6a74 003c
00000320: a4ad 96bd 8ebb 013e ffe7 59be d6b1 54be
00000330: 0547 8a3e 4871 c9be f5cb 033d a8d5 c53d
00000340: aa9a 09bd e066 7a3d bedc 6bbe dd56 0c3c
00000350: f284 b1be bf76 c33e e641 c3bd 884f d6be
00000360: 869f 483c 2c38 923d 38bc 1fbe dfbf b5bd
00000370: 43ab d33a 8748 193e f79b 2d3e 94de 10bd
00000380: ffc7 4b3e 4666 00be ecb9 833d a716 24be
00000390: e5fe f83e cee0 d5be 746a e5be 3009 b23e
000003a0: 4b21 3c3e 5863 97bd dd69 7cbe 86fd fd3e
000003b0: e971 52be 9982 95be f747 c23e e800 ed3d
000003c0: b473 ee3d 959c 39be 58d2 003f 360d c1be
000003d0: 924c fd3d 5347 683e 76dd 813e 2d3e 263f
000003e0: 5eed a9be d6c3 343e 23e7 d03e 3336 fe3e
000003f0: f35f d8be 5fd4 ab3d 55dc dabd 2870 e3be

bias_ih_l0 f4 [512]
0.23130818 0.49582425 0.37907687 0.75834405 0.47957286 0.94719297 0.45216426 0.528295
0.87482107 0.9130788 0.81009436 0.3363198 0.7793609 0.3122791 0.8324256 0.73279333
1.4618357 0.66835725 0.17601039 0.4192271 0.51053494 0.70800996 0.43556175 0.40564314
0.32323238 0.531858 0.3966751 0.14981772 0.2952308 0.8904328 0.12507127 0.4367471
0.64551127 0.8929475 0.31350157 0.88624966 0.2701806 0.41577 0.45377782 0.37213632
0.18388511 0.6506036 0.460274 0.41033012 0.5035081 0.35519344 0.747731 0.35316455
0.5302507 0.3209558 1.0729022 0.32196054 0.4598451 1.0517987 0.74375933 0.6784244
0.80044645 0.10519844 0.19611879 0.87242013 0.43505296 0.29625764 0.148152 0.6514918
0.47892055 0.21906787 0.51430684 0.1725776 0.25596613 0.5402263 0.44324157 0.4215226
0.47694123 0.19590637 0.19339535 0.483001 0.2514317 0.28497413 0.46066123 0.9170709
0.58398455 0.6531037 0.3768346 0.39281324 0.49263382 0.21444483 0.48453087 0.16316637
0.13320266 0.5096564 0.60234505 0.2745948 0.49914563 0.3821201 0.76803416 0.6215277
0.54108346 0.66012347 0.8376343 1.0451769 0.6067792 1.0518247 0.26869634 0.46114245
0.42709836 0.35380405 0.3779333 0.96603495 0.44314626 0.62381685 1.3430852 0.39320064
0.18026255 0.8195552 0.79344535 0.42902318 0.38573763 0.7621744 0.77405816 1.3445975
0.45819774 1.1246632 0.37416264 0.51420194 0.27007833 0.416113 0.14103062 0.5967258
0.04013393 -0.1281303 -0.026829518 -0.122001365 -0.035296474 -0.16842504 -0.067468554 -0.38009623
-0.017557923 -0.08049337 0.05044954 -0.035099823 -0.059578244 0.017154647 0.14822331 0.12911656
-0.09480493 -0.12878375 0.019302161 0.09310154 0.16068959 -0.06329099 0.02617146 -0.0076738424
0.03277387 -0.015016851 -0.035295222 -0.1348124 -0.1208029 -0.25254855 -0.093025275 0.1256671
-0.1582677 -0.02824552 0.016625226 -0.193127 -0.03231534 -0.054642558 0.20920706 0.042245124
-0.097506255 -0.0577104 -0.02600067 -0.017289033 0.18139169 0.063413516 0.08058601 0.04129713
0.066902615 0.05710552 -0.095396355 -0.12754743 -0.028699482 -0.026246563 -0.0078800935 -0.008539632
-0.0026741582 -0.064291425 0.052682824 0.010574037 0.06309915 -0.064024925 0.0719447 0.026077218
0.026574057 0.039872106 0.13575675 -0.010573553 -0.11786927 -0.06949412 -0.10519052 -0.11634645
-0.11921754 0.06466084 -0.09870131 0.07798993 0.103616744 -0.08056925 -0.19223121 0.023249935
0.063384466 -0.08420483 0.027217148 0.02323307 -0.05129263 -0.075863704 0.018170208 -0.15917428
-0.13784644 -0.13291016 -0.062632404 0.021786898 -0.19383137 0.06880037 0.021461083 -0.003932462
-0.14339668 -0.040569413 -0.15292534 -0.1150192 0.19244054 0.1059467 -0.015670788 -0.026622573
-0.049585436 -0.029732555 -0.0453615 0.102736294 -0.22260459 -0.14232202 -0.08163364 0.09938574
0.05763366 -0.059295855 0.038204364 0.15567914 0.01077134 0.101299904 -0.09706687 0.062312547
0.00527537 0.017794706 -0.063265495 0.063128375 -0.12537187 0.039971586 -0.066574894 -0.087100714
00000000: 0ddc 6c3e addc fd3e 5d16 c23e d622 423f
00000010: 938a f53e 3d7b 723f 1382 e73e 573e 073f
00000020: 46f4 5f3f 88bf 693f 5862 4f3f 1c32 ac3e
00000030: 3284 473f 0ce3 9f3e d819 553f 5898 3b3f
00000040: 6f1d bb3f 7619 2b3f 113c 343e efa4 d63e
00000050: 6bb2 023f 2440 353f f301 df3e 75b0 cf3e
00000060: b77e a53e d927 083f 0019 cb3e d169 193e
00000070: 7e28 973e 67f3 633f af12 003e 519d df3e
00000080: 3a40 253f 3598 643f 4783 a03e 42e1 623f
00000090: 1d55 8a3e cedf d43e 9155 e83e a788 be3e
000000a0: 614c 3c3e f58d 263f 09a9 eb3e ca16 d23e
000000b0: e8e5 003f eadb b53e 4c6b 3f3f fcd1 b43e
000000c0: 83be 073f 5254 a43e dc54 893f 03d8 a43e
000000d0: d170 eb3e 57a1 863f 0367 3e3f 39ad 2d3f
000000e0: 0fea 4c3f 4872 d73d 5dd3 483e ed56 5f3f
000000f0: 43bf de3e 15af 973e 28b5 173e 2bc8 263f
00000100: 1335 f53e 5453 603e 9da9 033f 2fb8 303e
00000110: fe0d 833e 454c 0a3f 8ff0 e23e cfd1 d73e
00000120: a431 f43e ae9b 483e 6e09 463e e84b f73e
00000130: a8bb 803e 21e8 913e cadb eb3e 29c5 6a3f
00000140: 0380 153f ce31 273f 77f0 c03e d11e c93e
00000150: 803a fc3e 6d97 5b3e 6e14 f83e 1615 273e
00000160: 4766 083e d878 023f 4933 1a3f b197 8c3e
00000170: 0490 ff3e 3fa5 c33e e39d 443f 701c 1f3f
00000180: 7284 0a3f dafd 283f 346f 563f 5bc8 853f
00000190: e255 1b3f 31a2 863f 9192 893e dd1a ec3e
000001a0: a3ac da3e ce25 b53e 7980 c13e 114e 773f
000001b0: 11e4 e23e 76b2 1f3f 37ea ab3f 9851 c93e
000001c0: bf96 383e 5fce 513f 3c1f 4b3f eda8 db3e
000001d0: 677f c53e dd1d 433f ad28 463f c51b ac3f
000001e0: e598 ea3e f7f4 8f3f 3f92 bf3e bda2 033f
000001f0: b547 8a3e c30c d53e 556a 103e 06c3 183f
00000200: 7a63 243d 9734 03be 94c9 dbbc dadb f9bd
00000210: 0993 10bd 9d77 2cbe f42c 8abd f99b c2be
00000220: a2d5 8fbc b5d9 a4bd 2da4 4e3d d5c4 0fbd
00000230: 5108 74bd e787 8c3c dac7 173e 2237 043e
00000240: 1629 c2bd e3df 03be 911f 9e3c 05ac be3d
00000250: d08b 243e b59e 81bd 8865 d63c db74 fbbb
00000260: e53d 063d 3d09 76bc b991 10bd 430c 0abe
00000270: 8367 f7bd 0b4e 81be 0984 bebd e0ae 003e
00000280: ee10 22be 2663 e7bc a031 883c 16c3 45be
00000290: 175d 04bd e0d0 5fbd 603a 563e 3909 2d3d
000002a0: 5cb1 c7bd be61 6cbd 5bff d4bc bba1 8dbc
000002b0: bebe 393e f2de 813d 470a a53d 2e27 293d
000002c0: 3d04 893d 7ae7 693d 2a5f c3bd cb9b 02be
000002d0: 2d1b ebbc 0803 d7bc 821b 01bc d0e9 0bbc
000002e0: ee40 2fbb 39ab 83bd f2c9 573d ba3e 2d3c
000002f0: 213a 813d 801f 83bd be57 933d e49f d53c
00000300: d6b1 d93c ef50 233d d103 0b3e b23c 2dbc
00000310: 7265 f1bd ef52 8ebd 216e d7bd 0c47 eebd
00000320: 5328 f4bd e76c 843d ea23 cabd 2fb9 9f3d
00000330: 0435 d43d 7e01 a5bd 42d8 44be a676 be3c
00000340: b7cf 813d 9573 acbd 7ff6 de3c 4753 be3c
00000350: 3918 52bd 6e5e 9bbd b0d9 943c 95fe 22be
00000360: 9e27 0dbe 9a19 08be 6b45 80bd 707a b23c
00000370: bb7b 46be 35e7 8c3d 27cf af3c e2db 80bb
00000380: 94d6 12be 1d2c 26bd 7698 1cbe 308f ebbd
00000390: 220f 453e 95fa d83d 0660 80bc 9517 dabc
000003a0: 191a 4bbd b091 f3bc fbcc 39bd 6867 d23d
000003b0: 75f2 63be ddbc 11be 8a2f a7bd c08a cb3d
000003c0: 4611 6c3d 36e0 72bd 2e7c 1c3d 5a6a 1f3e
000003d0: 467a 303c 5376 cf3d ffca c6bd 713b 7f3d
000003e0: 03dd ac3b 34c6 913c 5791 81bd 7349 813d
000003f0: 7c61 00be 3fb9 233d 6b58 88bd dc61 b2bd

bias_hh_l0 f4 [512]
0.21752869 0.38707954 0.4718037 0.6651866 0.41413844 0.80663025 0.46788362 0.52570856
0.78605694 0.84958667 0.7542273 0.35041478 0.79042494 0.36500227 0.78639966 0.6604063
1.4551903 0.6539848 0.27335665 0.37533146 0.5331471 0.67244756 0.5345004 0.44341096
0.36138064 0.4512352 0.4796477 0.1596784 0.32300216 0.85802895 0.21150973 0.43957454
0.5946973 0.88207465 0.29506975 0.7176374 0.34144148 0.4037201 0.52526754 0.3906637
0.17657524 0.6698976 0.57821983 0.36175328 0.45645303 0.39281952 0.71222043 0.36863056
0.5254455 0.30781743 0.9432157 0.23528525 0.5395283 0.9781134 0.6807835 0.7084247
0.88160586 0.16543569 0.09078781 0.8742304 0.5367335 0.33029443 0.21915169 0.7168652
0.4795858 0.18875746 0.48728022 0.305801 0.112689644 0.477267 0.54923695 0.46433884
0.5375664 0.15538721 0.24568012 0.4288437 0.29445755 0.37761816 0.43222338 0.8668409
0.4825576 0.7273834 0.49762616 0.43847498 0.35492814 0.15881753 0.41287398 0.22280562
0.26200652 0.48392686 0.5975387 0.39558873 0.39484173 0.32297355 0.72174555 0.64503634
0.5384416 0.69960713 0.88769585 1.1606997 0.6546726 1.0412309 0.30547556 0.4145007
0.36443055 0.43588915 0.3456628 1.0054173 0.57247466 0.5840702 1.2367681 0.39715824
0.108116366 0.770918 0.73850995 0.58016235 0.3419813 0.78042686 0.72954607 1.344727
0.36331093 1.146087 0.40420812 0.63848233 0.2521276 0.50697094 0.11048154 0.7531072
0.04201299 -0.03500757 -0.0105238445 0.048795637 -0.07659942 -0.12842503 -0.06873106 -0.32485044
0.136508 -0.09738829 0.012541539 -0.051413856 -0.016285855 0.085978284 0.061005257 0.14168745
-0.00879817 -0.1162508 -0.033506956 -0.010128217 0.14962299 0.0061478294 0.116014175 0.044188872
-0.022076312 0.12266823 -0.029768048 -0.15108328 -0.05606328 -0.25712878 0.012354082 0.12344317
-0.10330086 0.1258051 -0.077084 -0.04031392 -0.039592236 -0.023414578 0.0890006 0.03801572
-0.080923684 -0.037059788 -0.04523008 0.014615783 0.17484762 0.019672317 0.07935252 0.011958582
-0.04709237 0.10451128 0.0074406513 -0.18399686 0.04738117 -0.049319755 0.05096653 -0.13340253
-0.073146686 0.015790865 -0.034117807 -0.022985546 0.10934809 -0.007630495 -0.055095043 0.04101194
0.058790483 0.048910834 0.11916412 -0.061564233 -0.120320015 0.032187983 -0.08697744 -0.044089116
0.027604796 0.010720764 -0.08132832 -0.05461476 0.057218935 -0.08483561 -0.318706 -0.06833979
-0.003942057 -0.11642669 0.03720552 -0.036628716 -0.1747231 -0.009554981 -0.014705207 -0.1627015
-0.10113929 -0.091219716 -0.15800735 -0.044921648 -0.20614174 0.070782505 -0.084586166 -0.15679713
-0.06126698 -0.10600371 -0.23287918 -0.13212274 0.17306356 -0.0002790749 -0.075040944 -0.09958343
-0.017153213 -0.0006313264 -0.017211825 0.15536262 -0.122271076 -0.10042639 -0.14908051 0.033488777
-0.08091195 -0.16341588 0.032421354 0.2602969 0.12408146 0.15507714 -0.10163191 0.12267787
-0.033315122 -0.06984937 -0.030517256 0.051593404 -0.10395051 0.047597684 0.071239725 -0.10504779
00000000: d7bf 5e3e 4a2f c63e 4190 f13e ab49 2a3f
00000010: f409 d43e 527f 4e3f 718e ef3e d694 063f
00000020: 073b 493f 837e 593f 0a15 413f 9169 b33e
00000030: 4a59 4a3f 94e1 ba3e 7d51 493f 6310 293f
00000040: ad43 ba3f 8c6b 273f 67f5 8b3e 722b c03e
00000050: 547c 083f 8625 2c3f 05d5 083f c306 e33e
00000060: e206 b93e 4d08 e73e 6294 f53e bc82 233e
00000070: 8a60 a53e c9a7 5b3f 0296 583e ea0f e13e
00000080: 153e 183f a5cf 613f 6213 973e 16b7 373f
00000090: 6bd1 ae3e 67b4 ce3e ef77 063f 1305 c83e
000000a0: 24d0 343e 697e 2b3f 3706 143f ba37 b93e
000000b0: 36b4 e93e a41f c93e 1454 363f 25bd bc3e
000000c0: 9983 063f 3f9a 9d3e 9676 713f 9eee 703e
000000d0: 871e 0a3f a465 7a3f d447 2e3f 525b 353f
000000e0: ecb0 613f f967 293e f6ee b93d 90cd 5f3f
000000f0: 5e67 093f 5a1c a93e 4d69 603e 7a84 373f
00000100: 458c f53e a349 413e cb7c f93e f391 9c3e
00000110: d4c9 e63d 575c f43e cb9a 0c3f d2bd ed3e
00000120: f49d 093f d31d 1f3e 9293 7b3e 6791 db3e
00000130: 24c3 963e 2b57 c13e 624c dd3e 49e9 5d3f
00000140: ca11 f73e cc35 3a3f dbc8 fe3e cb7f e03e
00000150: 24b9 b53e 10a1 223e 3864 d33e 2827 643e
00000160: b825 863e 43c5 f73e 4cf8 183f 9b8a ca3e
00000170: b228 ca3e ca5c a53e 51c4 383f 1a21 253f
00000180: 4fd7 093f 7419 333f 0940 633f cf91 943f
00000190: a098 273f 0e47 853f 4b67 9c3e 7039 d43e
000001a0: a496 ba3e dd2c df3e b7fa b03e 84b1 803f
000001b0: b38d 123f a085 153f 6b4e 9e3f 5358 cb3e
000001c0: 1d6c dd3d e25a 453f fd0e 3d3f 8585 143f
000001d0: 2c18 af3e 0eca 473f 88c3 3a3f 0420 ac3f
000001e0: e403 ba3e fbb2 923f 5ef4 ce3e 9473 233f
000001f0: de16 813e d9c8 013f 2544 e23d a2cb 403f
00000200: d015 2c3d 1964 0fbd 346c 2cbc efdd 473d
00000210: 28e0 9cbd da81 03be dfc2 8cbd cc52 a6be
00000220: c1c8 0b3e 8373 c7bd 077b 4d3c 5697 52bd
00000230: ea69 85bc 6215 b03d a6e0 793d 8416 113e
00000240: 3326 10bc e614 eebd 973e 09bd d2f0 25bc
00000250: c536 193e bb73 c93b d798 ed3d 64ff 343d
00000260: 62d9 b4bc 7b39 fb3d 1fdc f3bc 93b5 1abe
00000270: 9ca2 65bd 62a6 83be c768 4a3c c6cf fc3d
00000280: 678f d3bd 0dd3 003e 37de 9dbd 3520 25bd
00000290: 782b 22bd eecf bfbc f245 b63d 5fb6 1b3d
000002a0: 51bb a5bd 01cc 17bd 2d43 39bd 0977 6f3c
000002b0: 410b 333e d727 a13c 9383 a23d eeed 433c
000002c0: eee3 40bd 030a d63d b5d0 f33b ac69 3cbe
000002d0: c212 423d 8303 4abd 48c2 503d ac9a 08be
000002e0: eecd 95bd d85b 813c 1dbf 0bbd 2f4c bcbc
000002f0: e4f1 df3d 3b09 fabb 57ab 61bd 23fc 273d
00000300: 4ace 703d ba56 483d 510c f43d c72a 7cbd
00000310: 576a f6bd 8cd7 033d 3a21 b2bd ca96 34bd
00000320: 7423 e23c 25a6 2f3c 768f a6bd bab3 5fbd
00000330: 675e 6a3d 4bbe adbd 6f2d a3be bbf5 8bbd
00000340: 5f2c 81bb 1e71 eebd d164 183d fe07 16bd
00000350: 9dea 32be 7f8c 1cbc 1cee 70bc 399b 26be
00000360: 1e22 cfbd 67d1 babd aecc 21be c3ff 37bd
00000370: d216 53be 6bf6 903d 833b adbd 6d8f 20be
00000380: 16f3 7abd 7918 d9bd e177 6ebe 2f4b 07be
00000390: 9337 313e cd50 92b9 11af 99bd 66f2 cbbd
000003a0: e584 8cbc 997f 25ba d0ff 8cbc 6117 1f3e
000003b0: 4269 fabd 5aac cdbd 90a8 18be 872b 093d
000003c0: 2ab5 a5bd 7e56 27be 41cc 043d a345 853e
000003d0: 6c1e fe3d 8bcc 1e3e 6424 d0bd 893e fb3d
000003e0: 7075 08bd 300d 8fbd 53ff f9bc 9b53 533d
000003f0: 01e4 d4bd caf5 423d 22e6 913d 4c23 d7bd

weight f4 [1, 128]
-0.22718036 -0.5565195 1.1655308 0.7624839 0.49222982 -1.4007193 -0.81588215 -1.3741074
-0.58804256 1.4106619 1.1038195 -0.42058042 -0.44273823 -0.5974186 0.7980515 0.2755819
-1.2279073 0.53158534 -0.22199371 0.71345496 0.47774583 -0.58210033 -0.3440805 0.6689249
0.19332759 0.65597206 -0.43730864 -0.2814186 -0.26888356 1.0628703 0.17727047 -0.35621324
0.45229355 0.87467134 0.8621791 -0.8480478 0.30682895 -0.4180818 -0.450076 0.35367766
0.21054816 0.94372123 1.2172734 -0.6694179 -0.741076 -0.59791374 1.0552715 0.7938921
1.2085303 -0.8636905 -0.9996443 -0.2770698 -1.0352293 1.0321611 -0.71914274 -0.62736607
1.0657443 0.08874408 -0.03675633 -1.2644663 0.6781386 0.38160047 -0.02496975 -1.2629812
0.7037913 0.023042137 0.46468163 0.45844385 -0.28415534 0.69058377 -0.71919656 0.27961203
-0.78847927 -0.14056228 -0.102893196 -0.887134 0.17378594 -0.59040517 0.83618313 -1.484289
0.40544024 -1.1006021 -0.57349265 -0.25075215 0.3488945 0.026217557 -0.45461828 0.33214873
-0.14414743 -0.42544782 -0.92507184 0.43885887 0.47803408 0.44321907 1.0571724 -1.1607149
0.6827626 0.88150185 -0.65845364 1.2369269 -0.7871334 0.71591353 -0.40571365 -0.45731217
0.45476446 -0.5943123 -0.7341455 -0.78478587 -0.40900102 -0.7463263 -1.4379501 0.8451007
0.063864574 0.8459662 -0.56798124 0.48366976 0.4851745 -0.6058413 -0.68191046 -0.93310934
-0.8050052 -0.52864033 0.7820483 0.8102988 -0.23896685 -0.27333996 0.02033229 -1.0385098
00000000: f8a1 68be 1078 0ebf 1d30 953f 2532 433f
00000010: 8c05 fc3e c54a b3bf a7dd 50bf c0e2 afbf
00000020: f589 16bf 9290 b43f f549 8d3f 5156 d7be
00000030: 96ae e2be 6df0 18bf 1a4d 4c3f 1219 8d3e
00000040: 112c 9dbf fa15 083f 5252 63be fca4 363f
00000050: 1a9b f43e 8704 15bf 522b b0be aa3e 2b3f
00000060: abf7 453e c9ed 273f ebe6 dfbe 1916 90be
00000070: 1bab 89be 220c 883f 6486 353e 9561 b6be
00000080: 0593 e73e 76ea 5f3f c5b7 5c3f a919 59bf
00000090: af18 9d3e d10e d6be 5d70 e6be 3d15 b53e
000000a0: f099 573e b797 713f 9dcf 9b3f f95e 2bbf
000000b0: 28b7 3dbf e010 19bf 2313 873f 833c 4b3f
000000c0: 1fb1 9a3f d21a 5dbf b0e8 7fbf 18dc 8dbe
000000d0: 6582 84bf db1d 843f bd19 38bf 109b 20bf
000000e0: 4f6a 883f 75bf b53d ce8d 16bd 08da a1bf
000000f0: 7e9a 2d3f 2361 c33e 5c8d ccbc 5ea9 a1bf
00000100: ab2b 343f ddc2 bc3c c0ea ed3e 27b9 ea3e
00000110: cf7c 91be 19ca 303f 441d 38bf 4f29 8f3e
00000120: c7d9 49bf 8fef 0fbe abb9 d2bd 371b 63bf
00000130: f1f4 313e cb24 17bf 1910 563f 2ffd bdbf
00000140: dd95 cf3e 88e0 8cbf 6ad0 12bf 9662 80be
00000150: 4da2 b23e 34c6 d63c bac3 e8be 660f aa3e
00000160: 629b 13be 4cd4 d9be 82d1 6cbf 1cb2 e03e
00000170: e2c0 f43e 9ced e23e 6d51 873f 4e92 94bf
00000180: 88c9 2e3f 1baa 613f 6b90 28bf 9f53 9e3f
00000190: 9381 49bf 1c46 373f b3b9 cfbe d224 eabe
000001a0: e3d6 e83e da24 18bf f6f0 3bbf bae7 48bf
000001b0: 9568 d1be 3e0f 3fbf c00e b8bf 8558 583f
000001c0: 6ecb 823d 3e91 583f 3867 11bf 90a3 f73e
000001d0: cb68 f83e 6a18 1bbf af91 2ebf 41e0 6ebf
000001e0: d214 4ebf f954 07bf 5134 483f be6f 4f3f
000001f0: bab3 74be 37f3 8bbe e78f a63c e4ed 84bf
