TIMEBAND/pretrained/sample/netG.pth (torch, 531867 bytes, 14 tensors)

weight_ih_l0 f4 [128, 22]
0	0xbe2176a5	-0.15767916
1	0xbe39a859	-0.18130626
2	0xbe57fe38	-0.2109307
3	0xbe6b8160	-0.22998571
4	0x3dd401ec	0.10351929
5	0xbd820983	-0.063494705
6	0xbe06f5ae	-0.13179657
7	0x3e1e3e66	0.1545349
8	0x3cdb704b	0.026786944
9	0x3e3c1108	0.18365872
10	0x3e2e23d4	0.17005855
11	0x3e0611fa	0.13092795
12	0xbd23203d	-0.039825667
13	0xbdf2a235	-0.11847345
14	0x3d609e36	0.05483838
15	0xbcbc81ea	-0.023011167
16	0x3e082339	0.13294686
17	0x3c02c563	0.007981631
18	0x3e0d2bbc	0.13786215
19	0x3c0aa575	0.0084623
20	0x3c41a476	0.011818996
21	0xbd9809bb	-0.07423731
22	0x3c850895	0.016239444
23	0xbd165de1	-0.036710624
24	0xbe993312	-0.29921776
25	0xbe863b35	-0.26217046
26	0xbe39de68	-0.18151248
27	0xbd4424de	-0.04788672
28	0x3ddb0cd9	0.1069581
29	0x3d34358a	0.04399637
30	0x3d07b1df	0.033128615
31	0x3e6f13f4	0.23347455
32	0x3e32301e	0.17401168
33	0xbdae77ce	-0.08518945
34	0x3da21a67	0.07915192
35	0x3e231116	0.15924487
36	0x3dd8cbde	0.105857596
37	0xbcf921cf	-0.030411629
38	0x3dfb9937	0.12285083
39	0x3ded8f1e	0.11599563
40	0x3e385a23	0.18003134
41	0xbd6f7cde	-0.058468692
42	0xbd71dbcc	-0.059047505
43	0x3e17edd9	0.14836825
44	0xbc030df3	-0.007998931
45	0xbe32b39d	-0.1745133
46	0xbe1c8296	-0.1528419
47	0x3be969cf	0.007123209
48	0xbd9c5e26	-0.07635145
49	0x3dbd2dc5	0.092372455
50	0x3e5480b2	0.20752218
51	0xbd44b142	-0.04802061
52	0x3e4183bb	0.18897907
53	0xbbc381c6	-0.005966398
54	0x3d350838	0.04419729
55	0x3cfaaaf3	0.030599093
56	0x3e1637ae	0.14669678
57	0x3e57f258	0.2108854
58	0x3e2ee387	0.17078982
59	0xbce61661	-0.028086843
60	0x3e4c7a45	0.19968517
61	0x3de7a9c7	0.11311679
62	0xbd401fd2	-0.046905346
63	0x3df39b01	0.11894799
64	0x3e6309e9	0.22171749
65	0x3e0c8a84	0.13724715
66	0xbe6eb913	-0.23312788
67	0xbc4e3904	-0.012586836
68	0xbe07df1b	-0.13268702
69	0xbe90e34d	-0.28298417
70	0xbe3f919d	-0.18707891
71	0xbbcd346a	-0.0062623518
72	0xbd970482	-0.07373907
73	0x3e27e2c1	0.16395094
74	0x3e80a097	0.2512252
75	0x3de30b89	0.110861845
76	0xbdbf0a13	-0.093280934
77	0x3e13bd3d	0.14427657
78	0xbd40fac6	-0.047114156
79	0x3da89d32	0.082331076
80	0x3ad28ffe	0.0016064642
81	0x3cbcdb8a	0.023053903
82	0x3ea9f733	0.3319641
83	0x3e2752c6	0.1634017
84	0xbd969899	-0.073533244
85	0x3c24284c	0.010019373
86	0x3e609cd9	0.21934833
87	0x3ea3a1f1	0.3195949
88	0x3cee6265	0.029099653
89	0x3d648feb	0.055801313
90	0xbdcad554	-0.0990397
91	0x3e040b49	0.1289493
92	0xbe97fd16	-0.29685277
93	0x3d9234dc	0.071389884
94	0x3e315f84	0.17321593
95	0x3e330773	0.1748331
96	0x3e3f9abc	0.1871137
97	0xbcb8b798	-0.022548482
98	0x3df535fa	0.11973186
99	0x3e8c9dbe	0.27464098
100	0xbd075c37	-0.033046927
101	0x3c18b3c7	0.009320206
102	0x3e20a0a7	0.15686284
103	0x3e65c918	0.22439992
104	0xbdba8466	-0.09107284
105	0x3e9dc349	0.30813053
106	0x3db74d04	0.089502364
107	0x3d2a11e0	0.041520953
108	0x3e88dade	0.26729482
109	0xbccaaa0c	-0.024739288
110	0xbe01ba55	-0.12668736
111	0x3d8e8ab8	0.06960052
112	0xbe3bb2b5	-0.1832989
113	0xbe1a031d	-0.1504025
114	0xbdf12ca2	-0.11776091
115	0x3d637bac	0.055537865
116	0x3e35988b	0.17733972
117	0xbe227d5a	-0.1586813
118	0x3c6b8185	0.014374142
119	0x3e20c868	0.15701449
120	0x3e2828bd	0.1642179
121	0xbdae13ee	-0.08499895
122	0x3e4bc798	0.19900358
123	0xbd1a919d	-0.037736524
124	0x3dfe50ef	0.124177806
125	0x3d893e35	0.06701318
126	0x3dd5fadc	0.10448238
127	0x3e0c1e0a	0.13683334
128	0x3da4cdb7	0.080470495
129	0xbc861c76	-0.016370993
130	0xbdb4947a	-0.08817382
131	0xbc462f74	-0.012096275
132	0xbe73653a	-0.23769084
133	0xbe15dbcc	-0.14634627
134	0xbdf9446c	-0.121712536
135	0x3cc8a48b	0.024492523
136	0x3e18cb68	0.14921343
137	0x3e392e2e	0.18084022
138	0x3e40dd19	0.18834342
139	0xbdd5f659	-0.10447378
140	0x3d837604	0.06418994
141	0x3bc49354	0.005999008
142	0xbdaa8c67	-0.08327561
143	0x3db9eaf6	0.09078018
144	0xbdc0ce80	-0.09414387
145	0xbe0048c4	-0.12527758
146	0xbde15c04	-0.11003879
147	0xbdac014c	-0.08398685
148	0xbc669e71	-0.014075861
149	0xbdab2298	-0.083562076
150	0x3e0fd3ca	0.14045635
151	0xbdb3ddf5	-0.08782569
152	0x3e02e618	0.12783086
153	0xbd7b5942	-0.06136442
154	0x3ca7e934	0.020496942
155	0x3c49088c	0.012270104
156	0xbe2a662d	-0.1664054
157	0xbcb84750	-0.022494942
158	0xbe369612	-0.17830685
159	0x3e70dccd	0.23521729
160	0x3da13841	0.07872058
161	0xbba9279d	-0.005162193
162	0x3e6a2d47	0.22868834
163	0x3e910871	0.28326753
164	0x3d0d00c6	0.034424566
165	0xbd269028	-0.040664822
166	0x3db38d2a	0.08767159
167	0x3e42f976	0.19040474
168	0xbdfb99df	-0.12285208
169	0x3e51033c	0.2041139
170	0x3e5412d9	0.20710315
171	0x3ce31315	0.02771906
172	0x3e01b5de	0.12667033
173	0xbc364c88	-0.011126645
174	0x3e14a118	0.14514577
175	0x3e87def1	0.26537278
176	0xbd82241b	-0.06354543
177	0xbec09831	-0.37616113
178	0xbe8b422b	-0.2719892
179	0xbe1ca83d	-0.15298553
180	0xbe6da3de	-0.23207042
181	0x3da2d75d	0.079512335
182	0x3e37659f	0.17909859
183	0x3dec6a26	0.11543684
184	0x3e37f2db	0.17963736
185	0xbd833720	-0.06406999
186	0x3e70906e	0.23492596
187	0xbca044e7	-0.019564105
188	0x3dff1a40	0.12456179
189	0x3c85a87a	0.016315687
190	0xbdce8f4d	-0.10085926
191	0x3db388db	0.087663375
192	0x3d71ca15	0.05903061
193	0x3e3c4661	0.18386222
194	0x3cef0bd2	0.029180441
195	0xbc76761f	-0.015042811
196	0x3e766c1d	0.2406468
197	0x3d63d201	0.055620197
198	0xbe51eb11	-0.20499827
199	0xbe172434	-0.14759904
200	0xbcc49e52	-0.024001274
201	0xbe2b9482	-0.1675587
202	0xbe48eb65	-0.19621046
203	0x3e01a1d5	0.1265939
204	0x3de1976b	0.11015209
205	0x3cf7d31d	0.030252034
206	0xbd3492c4	-0.04408528
207	0x3d397bea	0.04528419
208	0x3da1f241	0.079075344
209	0x3e1de9f9	0.15421285
210	0x3e5144ff	0.20436476
211	0x3e36adb9	0.17839707
212	0x3e394e24	0.18096215
213	0x3e782ea2	0.24236539
214	0x3c949fa4	0.018142529
215	0x3e68a739	0.2272004
216	0xbd0427c5	-0.03226449
217	0x3e4b37e7	0.19845544
218	0x3de9b3b6	0.1141123
219	0x3e7eefee	0.24896213
220	0xbcb1cf17	-0.021705193
221	0xbe2b3221	-0.16718341
222	0xbe2d3825	-0.16915949
223	0xbe6c01ee	-0.23047611
224	0xbe4c95b9	-0.1997899
225	0x3c99940d	0.018747354
226	0xbcb2866c	-0.021792613
227	0x3d507cbd	0.05090021
228	0x3cdbfeb2	0.026854847
229	0x3e118697	0.14211498
230	0x3e8751fe	0.26429743
231	0x3c2c0f4e	0.010501696
232	0xbdf6d8e2	-0.12053086
233	0x3e01cecf	0.12676547
234	0x3dd5a20f	0.10431301
235	0x3e18014c	0.14844245
236	0x3ba58e9f	0.005052402
237	0x3e94ac65	0.29037777
238	0x3e54015b	0.20703642
239	0x3e00d7f7	0.12582384
240	0x3e3479bb	0.17624561
241	0x3df0b904	0.11754039
242	0xbe2cceec	-0.1687581
243	0x3c559859	0.013036811
244	0xbe584cca	-0.21123043
245	0x3d5b1810	0.053489745
246	0xbd713ce6	-0.058895968
247	0x3e0fcb8f	0.14042495
248	0x3d15556e	0.036458425
249	0xbc9faed9	-0.019492554
250	0x3e4446cd	0.19167633
251	0x3e7fd4d0	0.24983525
252	0xbd32e13b	-0.043671828
253	0xbda6f56c	-0.08152279
254	0xbdf0a1d9	-0.1174962
255	0x3e0cffac	0.13769406

weight_hh_l0 f4 [128, 32]
0	0x3e113f1a	0.14184228
1	0x3d6af9ed	0.057367254
2	0x3d86e2b5	0.0658621
3	0xbca335f8	-0.019923195
4	0x3c14063b	0.009034689
5	0x3e3f9f28	0.18713057
6	0xbabe80c4	-0.0014534225
7	0xbd296e5e	-0.04136502
8	0x3e38318f	0.17987655
9	0xbdae3f46	-0.08508162
10	0xbe264a8c	-0.16239375
11	0x3d21d431	0.039509002
12	0xbd81a0e3	-0.06329515
13	0x3dfbf849	0.12303216
14	0x3e207d53	0.15672807
15	0xbde32e46	-0.1109281
16	0xbdb142aa	-0.08655293
17	0x3cd1f36c	0.025628768
18	0xbc62ad8e	-0.013835324
19	0x3e12f220	0.14350176
20	0x3cc6ca61	0.024266424
21	0xbdef8752	-0.11695732
22	0x3e0c6f59	0.13714351
23	0x3cd658db	0.026165416
24	0x3da87fb0	0.082274795
25	0x3c819dda	0.01582234
26	0x3d58ff5e	0.052977912
27	0xbcda3945	-0.026638636
28	0xbbbc3f7b	-0.005744872
29	0x3e37bdbe	0.17943475
30	0x3e231268	0.1592499
31	0xbe127d9f	-0.14305733
32	0xbd27b99b	-0.04094849
33	0x3e3099ac	0.17246121
34	0xbdf58851	-0.11988891
35	0x3b42a3b0	0.0029699616
36	0x3d9e81c9	0.07739598
37	0xbd0de031	-0.034637634
38	0x3d515dc3	0.05111481
39	0xbd57b5af	-0.0526635
40	0x3daab363	0.083349966
41	0x3e345845	0.17611797
42	0xbc923566	-0.017847728
43	0xbe017a25	-0.1264425
44	0x3cc80b3a	0.024419416
45	0xbe239d34	-0.15977937
46	0x3c95ae39	0.018271552
47	0xbd6c33bc	-0.057666525
48	0xbbc018dc	-0.0058623385
49	0xbd8c7c9c	-0.06859705
50	0x3de90805	0.11378483
51	0xbdcd900f	-0.100372426
52	0x3d4d3d87	0.050107505
53	0xbd1aff67	-0.037841227
54	0xbddc5c7d	-0.10759828
55	0xbe2d834e	-0.1694462
56	0x3d248bbc	0.040172324
57	0xbe044429	-0.12916626
58	0x3e3292bd	0.17438789
59	0x3c3a4638	0.0113692805
60	0xbe2bfe01	-0.16796114
61	0x3e52b56b	0.20577018
62	0x3d203faa	0.039123215
63	0x3dd40678	0.10352796
64	0x3c05357b	0.0081304265
65	0x3e36882b	0.17825381
66	0x3d84f5d9	0.06492204
67	0xbc3f8566	-0.0116895195
68	0x3e282fbd	0.1642446
69	0xbdccd7d4	-0.100021034
70	0xbe13d29a	-0.14435807
71	0x3e3d4878	0.18484676
72	0x3dd65ef1	0.104673274
73	0xbe1700b4	-0.14746362
74	0xbc22729a	-0.009915018
75	0x3dbd5691	0.09245027
76	0xbc72747a	-0.014798278
77	0xbdface65	-0.12246398
78	0x3d21eb25	0.039530892
79	0x3df0adcf	0.11751901
80	0x3c0328f1	0.008005367
81	0x3db0e714	0.08637825
82	0xbd91f684	-0.07127097
83	0xbc73ae7a	-0.014873141
84	0xbd804ca0	-0.06264615
85	0x3e03683e	0.12832734
86	0xbd2f9d29	-0.04287449
87	0x3d2858c1	0.041100267
88	0x3d136d6a	0.035993017
89	0x3d00f9f0	0.03148836
90	0x3c9249c0	0.017857432
91	0xbd6cab37	-0.05778047
92	0xbd5c3aaa	-0.053766884
93	0x3e04d1f0	0.1297071
94	0xbe15e354	-0.146375
95	0x3e047137	0.12933813
96	0xbe0023aa	-0.12513605
97	0x3e306f09	0.17229857
98	0x3c29666b	0.01033936
99	0x3e8935ed	0.26798955
100	0xbdfb61b7	-0.12274497
101	0x3dd0e172	0.1019925
102	0xbcd08859	-0.02545564
103	0xbd8576ab	-0.06516775
104	0x3df72be6	0.1206892
105	0x3e609968	0.2193352
106	0xbd7152d1	-0.05891687
107	0xbd8a8cd0	-0.06765139
108	0xbbeef7d7	-0.0072927284
109	0x3dc92573	0.09821596
110	0xbe2d8b6f	-0.16947721
111	0x3d189254	0.037248924
112	0x3e1d2f40	0.15350056
113	0xbda9cb47	-0.08290725
114	0xbc91ae34	-0.017783262
115	0xbde561b7	-0.11200278
116	0x3c01d163	0.007923457
117	0xbe3bb784	-0.18331724
118	0xbe02deb3	-0.12780266
119	0x3da8d44e	0.08243619
120	0x3e619680	0.22030067
121	0x3d4a0028	0.049316555
122	0x3e0aafb8	0.13543594
123	0xbe86b473	-0.26309547
124	0xbe445aa2	-0.19175199
125	0x3cadafe6	0.021202039
126	0xbdf427e4	-0.11921671
127	0x3e244ddd	0.16045327
128	0x3e4131da	0.18866673
129	0xbdab1d91	-0.08355249
130	0x3d251516	0.040303312
131	0xbdb4428a	-0.08801754
132	0x3d95d12c	0.07315287
133	0x3dd2a3be	0.102851376
134	0xbc518a9c	-0.012789395
135	0xbde1a9f9	-0.11018748
136	0xbdf78318	-0.12085551
137	0x3ddb7111	0.10714925
138	0x3dc71cf4	0.09722319
139	0xbe240062	-0.16015771
140	0xbcafc3b1	-0.021455618
141	0xbdc449e9	-0.0958441
142	0xbdde6aa0	-0.10860181
143	0xbdf0a676	-0.117505
144	0x3dd3d972	0.10344209
145	0xbe118614	-0.14211303
146	0xbd701615	-0.05861481
147	0xb8b03427	-8.402048e-05
148	0xbded10b6	-0.11575453
149	0xbe0ee723	-0.13955359
150	0x3dfce113	0.12347617
151	0x3cae9f70	0.02131626
152	0xbcb4dba2	-0.022077385
153	0xbd0ed13f	-0.03486752
154	0x3d3d31b2	0.04618997
155	0x3d36bbc2	0.044612654
156	0xbe2a6fe2	-0.16644242
157	0xbc129134	-0.008945752
158	0x3c1b20db	0.009468283
159	0x3e5d6395	0.21620019
160	0xbda324b1	-0.07965983
161	0x3de0c4d6	0.109750435
162	0x3d0dee12	0.03465087
163	0xbd95b50f	-0.07309925
164	0xbd8b6dd4	-0.068080574
165	0xbdc51b81	-0.096243866
166	0x3d1ccec9	0.038283143
167	0xbda12af3	-0.0786952
168	0xbda5b4ce	-0.080911264
169	0xbd77d68c	-0.060507342
170	0x3ddb95e4	0.10721949
171	0xbdf8b76e	-0.121443614
172	0xbdcd280b	-0.10017403
173	0x3e111914	0.14169723
174	0x3c5e7826	0.01357845
175	0xbc9b8b83	-0.018987423
176	0x3d06f5bf	0.032949205
177	0x3cfeaa8f	0.031087188
178	0x3e1fa8cd	0.15591736
179	0xbcbd7661	-0.023127737
180	0xbc14bfb0	-0.009078905
181	0x3e14df51	0.14538313
182	0x3e06da7c	0.13169283
183	0xbde82798	-0.11335677
184	0x3de2bcee	0.11071192
185	0x3e24ae98	0.16082227
186	0xbe0280dc	-0.12744468
187	0x3de66461	0.112496145
188	0xbd26d6a3	-0.040732037
189	0x3d058b72	0.03260369
190	0xbe0bca45	-0.13651378
191	0xbe1e7101	-0.15472795
192	0xbdf08a35	-0.11745111
193	0x3e0c3fdc	0.13696235
194	0x3d0195a0	0.031636834
195	0xbdd1373d	-0.10215614
196	0x3de937d8	0.113876045
197	0xbdb43dca	-0.08800848
198	0xbdc8d2fb	-0.09805866
199	0x3d293c8b	0.041317504
200	0x3e06d6ae	0.13167831
201	0xbdfd2dbe	-0.1236224
202	0xbe3b25ea	-0.18276182
203	0x3d6b151e	0.057393186
204	0x3d419c95	0.04726847
205	0x3d928b77	0.07155507
206	0x3c97610d	0.018478895
207	0x3d890e1a	0.06692143
208	0xbd2d104d	-0.042251874
209	0x3e21ed15	0.15813096
210	0xbdbe512a	-0.092928246
211	0x3e47c34b	0.19508092
212	0x3b358bea	0.0027701803
213	0x3da1591f	0.078783266
214	0xbc265aff	-0.010153531
215	0xbd916476	-0.070992395
216	0x3c234eb1	0.009967492
217	0xbc7e125c	-0.015507307
218	0xbc5ff25c	-0.013668623
219	0xbe267dd6	-0.1625894
220	0xbd8c359b	-0.06846162
221	0xbddcb5f0	-0.10776889
222	0xbe198514	-0.14992172
223	0x3cc301d8	0.02380459
224	0xbdbb9ca8	-0.09160739
225	0x3e7491bc	0.23883718
226	0x3d65749a	0.056019403
227	0x3cf88c78	0.030340418
228	0x3dc5cee2	0.096586004
229	0x3dba86a8	0.09107715
230	0x3e567808	0.20944226
231	0xbca2e358	-0.019883797
232	0x3d9dc5d9	0.07703752
233	0x3caf896b	0.02142783
234	0x3c446013	0.0119857965
235	0xbd95a2fb	-0.07306477
236	0x3e13d0a2	0.14435056
237	0xbd110b4d	-0.035411168
238	0xbe07e411	-0.13270594
239	0x3ccc6cae	0.024954166
240	0x3e1f1915	0.15536912
241	0xbda89903	-0.0823231
242	0x3cc3866a	0.023867805
243	0xbccf31c9	-0.025292294
244	0x3d494bc7	0.049144533
245	0x3dd87f8b	0.10571202
246	0xbdddbb4d	-0.108267404
247	0x3de6fbb5	0.11278478
248	0x3e2439de	0.160377
249	0xbd2d3fda	-0.04229722
250	0x3e07704e	0.13226435
251	0xbdb7cfbd	-0.0897517
252	0xbd8cbd71	-0.068720706
253	0xbd9620cf	-0.073304765
254	0xbe0dd1b9	-0.13849534
255	0xbe54cdd9	-0.2078165

bias_ih_l0 f4 [128]
0	0xbd8402b3	-0.06445827
1	0x3e1c50eb	0.15265243
2	0x3de425dc	0.111400336
3	0x3e7137b9	0.23556413
4	0x3d9484aa	0.07251866
5	0xbdbb86b6	-0.091565534
6	0x3e1febaf	0.1561725
7	0xbd7e9dcf	-0.062162217
8	0x3e28ce82	0.16485026
9	0x3dc55d96	0.09636991
10	0x3e614ce5	0.22001989
11	0x3e32c7c7	0.17459022
12	0x3e90de4f	0.28294608
13	0x3da2fc51	0.07958282
14	0x3cd51b86	0.0260141
15	0xbcdfb55a	-0.027308155
16	0x3e27b01d	0.16375776
17	0xbd95cad5	-0.07314078
18	0x3dd17067	0.10226517
19	0x3e4cd95e	0.20004794
20	0xbd8f8524	-0.070078164
21	0x3dad5e20	0.084652185
22	0x3d2fc831	0.042915527
23	0xbdb96d62	-0.09054066
24	0x3e0ab1f3	0.13544445
25	0x3e1d4057	0.15356575
26	0xbbb83f71	-0.005622797
27	0xbd5b2e7b	-0.053511124
28	0x3d666cc3	0.056256067
29	0x3e79f7cf	0.24410938
30	0x3c849d77	0.016188366
31	0x3e34113c	0.175847
32	0x3bf6a529	0.007527013
33	0xbd8c892f	-0.06862103
34	0x3cd2f6bd	0.02575242
35	0x3d84efcc	0.0649105
36	0x3e376faa	0.1791369
37	0x3d26a1c1	0.040681604
38	0x3d7d3523	0.061818253
39	0xbd84d6f4	-0.064863116
40	0x3d0e0620	0.03467381
41	0x3d92614f	0.071474664
42	0x3e202718	0.15639913
43	0x3e2c0c3d	0.16801544
44	0x3e1e563f	0.15462588
45	0x3c4d4573	0.012528765
46	0x3b9e685c	0.004834218
47	0xbae42f7d	-0.0017409172
48	0xbc920739	-0.01782571
49	0xbda0ec50	-0.07857573
50	0x3e00e71e	0.12588164
51	0x3d94e7e7	0.07270794
52	0x3cf11901	0.029430868
53	0xbdae7550	-0.08518469
54	0x3dc07e2a	0.09399064
55	0xbe17472c	-0.14773244
56	0xbe1ba9fd	-0.15201564
57	0xbd2fb3d1	-0.042896096
58	0xbda9f8d6	-0.08299415
59	0xbd2b0587	-0.04175332
60	0xbe3260ed	-0.17419787
61	0x3e3da9ab	0.18521754
62	0x3d2d0024	0.042236462
63	0xbdd7c54c	-0.10535678
64	0x3e421678	0.18953884
65	0x3e0f869e	0.14016196
66	0x3d85d056	0.065338776
67	0x3e0de57d	0.13857074
68	0x3d57dfaf	0.052703556
69	0x3cdaa190	0.026688367
70	0x3e01823c	0.12647337
71	0x3e487e2b	0.1957938
72	0x3df4d17b	0.11954018
73	0x3e516e31	0.20452191
74	0xbd4b3cf7	-0.049618687
75	0xbe44ec78	-0.1923083
76	0xbda23245	-0.079197444
77	0x3d16aa52	0.036783524
78	0x3d48aea7	0.048994686
79	0x3e4266c3	0.18984513
80	0xbd242a65	-0.040079493
81	0xbe622333	-0.2208374
82	0x3e18beab	0.14916484
83	0x3dcdcfdd	0.100494124
84	0xbe40048c	-0.18751734
85	0xbe49f8ba	-0.19723788
86	0x3d97f20c	0.07419214
87	0xbe454c39	-0.19267358
88	0x3d838d11	0.06423391
89	0x3dfcdf37	0.12347262
90	0x3e5248ca	0.2053558
91	0xbe12b02f	-0.14325021
92	0xbdc668f9	-0.09687991
93	0x3c93b52c	0.018030725
94	0xbe44211e	-0.19153258
95	0xbd8b9be4	-0.06816843
96	0xbd134f9a	-0.035964586
97	0x3e1ef72f	0.1552398
98	0xbd55b59a	-0.052175142
99	0xbd2a5178	-0.0415816
100	0x3e7a9387	0.2447034
101	0xbd671a6d	-0.056421686
102	0x3e050b21	0.12992527
103	0x3d87aab9	0.0662436
104	0x3c46d7c1	0.012136401
105	0x3c80fb14	0.015744723
106	0xbc40ef6b	-0.011775832
107	0x3d79fa46	0.061029695
108	0x3ce04c83	0.027380234
109	0x3dd7f739	0.10545201
110	0x3c354835	0.011064579
111	0x3e181528	0.1485182
112	0x3e25e01c	0.16198772
113	0x3de3a9c2	0.11116363
114	0x3e5ca7dc	0.21548408
115	0x3d15fa03	0.036615383
116	0x3d881a14	0.06645599
117	0x3e049539	0.12947549
118	0xbd8d61d6	-0.06903426
119	0x3d2a6e82	0.041609295
120	0x3e7c4ee8	0.24639475
121	0x3e72e07c	0.23718446
122	0x3e70625a	0.23475018
123	0x3e2a012b	0.16602008
124	0x3e837661	0.25676253
125	0xbcc3d0b2	-0.023903225
126	0x3d54d8a8	0.051964432
127	0xbd366e75	-0.044538934

bias_hh_l0 f4 [128]
0	0x3dcc44be	0.09974049
1	0xbb0caafc	-0.002146422
2	0x3e6e8d95	0.23296197
3	0xbd0f9a60	-0.035059333
4	0xbd5de807	-0.054176357
5	0x3ddbda67	0.10735016
6	0xbdaf915d	-0.08572648
7	0xbceb60b5	-0.028732637
8	0x3dd3f334	0.10349122
9	0x3e767b22	0.24070409
10	0x3e9c9725	0.30584064
11	0x3e3b9de7	0.18321954
12	0x3df1b81a	0.11802693
13	0x3c85116c	0.016243659
14	0x3e309c73	0.1724718
15	0x3cb3645b	0.02189844
16	0x3d97e55d	0.074167944
17	0x3e436da1	0.19084789
18	0x3e5fb65f	0.21846913
19	0xbdc44906	-0.095842406
20	0xbd74d30f	-0.059771594
21	0xbd6ee45b	-0.058323245
22	0x3e46539a	0.19367829
23	0x3c4bc7ea	0.0124378
24	0x3e6db0a6	0.23211917
25	0x3d208d52	0.039197274
26	0xba83a3a7	-0.0010043279
27	0x3ccb5e7e	0.02482533
28	0x3d707ebd	0.058714617
29	0x3cdd0b27	0.026982857
30	0x3e3ba41f	0.18324326
31	0x3e032309	0.12806334
32	0x3e034951	0.12820937
33	0x3d922b9f	0.07137226
34	0x3d18acdf	0.037274238
35	0x3da66039	0.08123822
36	0x3dd435ca	0.10361822
37	0x3d852cc7	0.06502681
38	0xbdf4142c	-0.1191791
39	0x3d6fe82a	0.05857102
40	0x3b50f9cb	0.003188717
41	0xbde8c4de	-0.113656744
42	0xbdc5d0e0	-0.0965898
43	0xbe0812ac	-0.13288373
44	0x3d13989c	0.03603421
45	0x3ddf75b4	0.10911122
46	0x3e592dc3	0.21208863
47	0x3d99e78c	0.07514867
48	0xbd313ef9	-0.043272946
49	0x3e2d69d6	0.16934904
50	0x3e43df0f	0.19128059
51	0x3db97cbf	0.090569966
52	0xbe19ccbf	-0.1501951
53	0x3b9b04dd	0.0047308044
54	0xbd555101	-0.052079204
55	0x3da246a0	0.07923627
56	0xbde45fc7	-0.111510806
57	0x3e008627	0.12551175
58	0x3df934e3	0.121682905
59	0xbe2b5f6b	-0.16735618
60	0x3d5d82d5	0.05407985
61	0x3dcc5f4f	0.09979116
62	0xbdbc4ec9	-0.091947146
63	0x3dca5773	0.09879961
64	0xbcbb6bda	-0.022878576
65	0xbcb4d8f9	-0.022076117
66	0x3e172cda	0.14763203
67	0x3e5a1a91	0.21299197
68	0xbe10e73a	-0.14150706
69	0x3df1bb4a	0.11803301
70	0xbdfed8dc	-0.124437064
71	0x3daf8a77	0.08571332
72	0x3e0b85a9	0.13625206
73	0x3d523624	0.051321164
74	0x3bcc2ad2	0.0062306905
75	0xbd33b955	-0.04387792
76	0x3e4f5f38	0.20251167
77	0x3d2613d8	0.04054627
78	0x3dc7ad9b	0.097499095
79	0x3da0e98f	0.07857048
80	0x3e75676c	0.23965234
81	0xbe701e64	-0.23449093
82	0x3d7f242b	0.06229035
83	0x3c4c67f9	0.012475961
84	0x3d19f5a7	0.037587788
85	0xbe2a3ca9	-0.16624703
86	0xbde0f7d4	-0.109847695
87	0xbd67787a	-0.05651138
88	0x3e4a516e	0.19757625
89	0xbe0406d5	-0.12893231
90	0xbc7aaa07	-0.015299327
91	0xbe704589	-0.23464026
92	0xbe5aca84	-0.21366316
93	0x3cf79364	0.030221649
94	0xbde89ae2	-0.113576666
95	0x3e56eb8b	0.2098829
96	0x3d85bdfd	0.06530378
97	0xbcadc3a7	-0.021211458
98	0x3e5f27a5	0.21792467
99	0x3db7f411	0.08982099
100	0x3e237d18	0.15965688
101	0x3d92c0a9	0.07165653
102	0xbdeef392	-0.11667551
103	0xbb0cabf5	-0.00214648
104	0x3d2aff80	0.04174757
105	0x3d2fdc53	0.042934727
106	0x3dc29700	0.09501457
107	0x3e35cf1c	0.17754787
108	0x3dc907b8	0.09815925
109	0x3d46634b	0.048434537
110	0x3dbc8b4e	0.09206258
111	0x3e3f22dd	0.18665643
112	0xbd034619	-0.032049272
113	0x3dbe5e0c	0.09295282
114	0x3cc64e31	0.024207206
115	0x3e356da3	0.17717604
116	0xbd45edac	-0.048322365
117	0xbc0d21f1	-0.008614049
118	0x3e3b705e	0.18304583
119	0x3e4c1d38	0.19933021
120	0xbda1ddb9	-0.07903618
121	0x3ddefd58	0.10888165
122	0xbd97e1d6	-0.07416122
123	0x3e628c20	0.22123766
124	0x3e159319	0.14606895
125	0x3de46acb	0.11153182
126	0x3c02d422	0.007985147
127	0xbd2e6885	-0.042580146

weight_ih_l0 f4 [256, 32]
0	0x3e266c0f	0.16252159
1	0x3da9d086	0.08291726
2	0x3dfcbf8d	0.12341223
3	0x3e2e1907	0.17001735
4	0xbd0d46ea	-0.034491457
5	0x3c9f2d99	0.019430922
6	0x3d0dfbcc	0.03466396
7	0x3ce249a1	0.027623
8	0x3df1fb0c	0.118154615
9	0x3e10d9ba	0.14145556
10	0xbe22bf51	-0.15893294
11	0xbe08cfad	-0.13360472
12	0x3c21ac3a	0.009867722
13	0x3e3ce5a7	0.1844698
14	0x3d48d949	0.049035344
15	0x3cb61cc8	0.02223052
16	0xbc5de80c	-0.013544094
17	0xbdc3553f	-0.09537744
18	0x3e37a79c	0.17935032
19	0xbc607ece	-0.013702108
20	0xbe1524db	-0.1456484
21	0xbe23bcfe	-0.15990064
22	0xbe33319e	-0.17499396
23	0x3d351e50	0.04421836
24	0x3d821e82	0.06353475
25	0x3e61ba19	0.22043647
26	0x3e14c678	0.14528835
27	0xbe18dc02	-0.14927676
28	0xbdd3e222	-0.10345866
29	0x3d800916	0.06251733
30	0xbe1e68c7	-0.15469657
31	0x3bb0ffbe	0.0054015806
32	0x3e4497ed	0.1919858
33	0x3d5f8873	0.054573487
34	0x3cd7a5b1	0.026324125
35	0xbd049ec7	-0.032377984
36	0xbe190b5a	-0.14945737
37	0x3e2d3118	0.16913259
38	0x3e517d0c	0.20457858
39	0x3e1d7e40	0.15380192
40	0x3dacbef5	0.0843486
41	0x3e3977c7	0.18112098
42	0xbd4926c3	-0.04910923
43	0xbe4c99ea	-0.19980589
44	0x3e2005c7	0.15627204
45	0x3d548582	0.051885135
46	0xbd19f02c	-0.03758256
47	0x3e56f06d	0.20990153
48	0x3d9dfb39	0.077139325
49	0x3cb2c21c	0.021821074
50	0x3ca53389	0.020166175
51	0x3d0d0b69	0.03443471
52	0xbcbbd4b0	-0.022928566
53	0xbd8b22f2	-0.06793775
54	0x3b74aac0	0.003733322
55	0xbd2d693d	-0.04233669
56	0x3e71da92	0.23618534
57	0x3d80b073	0.06283655
58	0x3d21cbae	0.039500885
59	0x3b8266c7	0.003979537
60	0xbd5a6a3b	-0.053323966
61	0x3dc1b5d8	0.09458512
62	0xbe5c4579	-0.21510877
63	0x3e0248b5	0.12723048
64	0x3e2cb2c7	0.16865073
65	0x3dad748f	0.084694974
66	0x3e2c97d8	0.16854799
67	0xbca016b0	-0.019542068
68	0xbec75622	-0.38932902
69	0x3dc0dada	0.094167426
70	0x3e10e0fe	0.14148328
71	0x3e49bf37	0.19701849
72	0x3caf17c1	0.021373631
73	0x3d8bd2c8	0.06827313
74	0xbe88c3b1	-0.267118
75	0xbe42cefa	-0.19024268
76	0x3e36ba83	0.17844586
77	0x3d7cb6de	0.061697833
78	0xbdd84378	-0.10559744
79	0x3d74c705	0.059760112
80	0x3d34297f	0.043984886
81	0xbea29400	-0.3175354
82	0xbd1e3641	-0.03862596
83	0x3dcae9b8	0.099078596
84	0xbd7079ea	-0.058710016
85	0xbdcc3103	-0.09970286
86	0x3d651969	0.055932436
87	0xbdbda848	-0.09260613
88	0x3e5d5f9e	0.21618506
89	0x3d2d334b	0.042285245
90	0x3d5cdbd5	0.053920586
91	0xbe2f55c1	-0.17122556
92	0xbe4be14e	-0.19910166
93	0xbccf8775	-0.025333146
94	0xbdf14080	-0.117798805
95	0x3e739333	0.23786621
96	0x3eb0794b	0.3446754
97	0x3e86497c	0.2622794
98	0x3e0d84d0	0.13820195
99	0x3e8637c9	0.26214436
100	0xbdce5e6c	-0.10076603
101	0x3e1358ee	0.14389393
102	0x3e106b72	0.14103487
103	0x3e87aa7d	0.2649726
104	0x3e7b47c5	0.24539097
105	0x3e2963b2	0.16541937
106	0xbe97019b	-0.29493412
107	0xbe68445f	-0.22682332
108	0x3ebe6b04	0.3719102
109	0x3e6863d7	0.22694336
110	0xbe431dab	-0.19054286
111	0x3de33f02	0.11096002
112	0x3e428014	0.1899417
113	0xbd25373e	-0.040335886
114	0x3e470290	0.19434571
115	0x3e81986f	0.2531161
116	0xbe9ad63c	-0.30241573
117	0xbdafd702	-0.08585931
118	0xbe96d3ef	-0.29458568
119	0xbe88b5d2	-0.26701218
120	0x3e5c6538	0.21522987
121	0x3e5e8713	0.21731214
122	0x3e9585a1	0.29203513
123	0xbe939f54	-0.28832495
124	0xbdeca718	-0.11555308
125	0x3e84f2ac	0.25966394
126	0xbe01a30f	-0.12659858
127	0xbd43f6d5	-0.04784282
128	0x3e24b159	0.16083278
129	0x3e780d53	0.24223833
130	0x3db2621d	0.0871012
131	0x3dfdaff4	0.12387076
132	0x3dd93db1	0.1060747
133	0x3d84cf3b	0.064848386
134	0x3e7a9324	0.24470192
135	0x3de77f88	0.113036215
136	0x3e3c68b2	0.18399313
137	0x3e591642	0.21199897
138	0xbd84ddc0	-0.06487608
139	0xbc140798	-0.009035014
140	0x3d8db86f	0.069199435
141	0x3e89f9ee	0.26948494
142	0xbe3bfcf4	-0.18358213
143	0x3e907577	0.2821462
144	0x3e314431	0.17311169
145	0xbe2119ac	-0.1573245
146	0x3e8deaa0	0.27718067
147	0x3e5c68b8	0.21524322
148	0xbe68e27b	-0.22742645
149	0xbdd48cd9	-0.10378427
150	0xbe1f034c	-0.15528601
151	0xbe3444de	-0.17604396
152	0x3e2a1ccc	0.16612548
153	0x3e4fa5e7	0.2027813
154	0x3e8c834b	0.2744392
155	0xbd739a15	-0.059473116
156	0xbd45bb9e	-0.04827463
157	0x3e151124	0.1455732
158	0xbe376874	-0.1791094
159	0xbdd66c53	-0.1046988
160	0x3e227a3f	0.15866946
161	0x3e3b34e0	0.18281889
162	0x3e5e1ade	0.21689937
163	0x3e0cd1c0	0.13751888
164	0xbe2816eb	-0.16414993
165	0x3dcfbac6	0.10143046
166	0x3e058c80	0.13041878
167	0xbb9f2817	-0.004857074
168	0x3e69edfd	0.22844692
169	0x3e1943f4	0.14967328
170	0xbe2e00af	-0.16992448
171	0xbe1289cc	-0.14310378
172	0x3e9195a7	0.28434488
173	0x3e58446b	0.2111985
174	0xbe69a5b3	-0.22817115
175	0x3e636060	0.22204733
176	0xbc356ad8	-0.011072837
177	0xbcc93f61	-0.024566354
178	0x3db4dc51	0.088310845
179	0x3dda3edc	0.10656521
180	0xbdcdbad7	-0.100454025
181	0xbe336367	-0.17518388
182	0xbe48e72c	-0.19619435
183	0xbe0501ee	-0.12989017
184	0x3e47a2be	0.19495675
185	0x3e74db49	0.23911776
186	0x3dd0e948	0.10200745
187	0xbe2f2564	-0.17104107
188	0xbe1191ad	-0.14215727
189	0xbbab48d6	-0.0052271886
190	0xbdbe0b4d	-0.09279499
191	0x3d7abd20	0.06121552
192	0x3e084647	0.13308059
193	0x3d27db0c	0.040980384
194	0x3dd67075	0.10470668
195	0xbb87993f	-0.0041381414
196	0x3d081f98	0.033233255
197	0x3ce9ead5	0.02855436
198	0x3e1232cd	0.14277191
199	0xbbbd7dda	-0.005782825
200	0x3cc5a14a	0.02412476
201	0x3e06bb9a	0.13157502
202	0xbce52479	-0.027971493
203	0xbddaa771	-0.10676468
204	0x3e33d19e	0.17560431
205	0xbc1da083	-0.0096207885
206	0xbaee9412	-0.0018202087
207	0x3df90d3c	0.121607274
208	0x3ddb4abe	0.10707615
209	0xbe0084b3	-0.1255062
210	0x3e7585b9	0.23976792
211	0x3e21bbbe	0.15794274
212	0xbdc93203	-0.09823992
213	0x3d176307	0.036959674
214	0xbdb0661e	-0.08613227
215	0xbd766d9c	-0.060163125
216	0x3e5317c9	0.20614542
217	0x3e373499	0.17891158
218	0x3c80fb63	0.01574487
219	0x3cf77df0	0.030211419
220	0xbe3eb510	-0.18623757
221	0x3db70f4a	0.08938463
222	0x3d1e66c9	0.038672242
223	0xbe02bc87	-0.1276723
224	0x3e25f98a	0.16208473
225	0x3eac7fca	0.33691245
226	0x3e7f64ce	0.24940798
227	0x3e90a03e	0.28247255
228	0xbe39653a	-0.18105021
229	0x3eae4305	0.34035507
230	0x3e5e85bf	0.21730708
231	0x3e7f00ed	0.24902697
232	0x3e9f52ac	0.3111776
233	0x3e4414a9	0.19148506
234	0xbe834159	-0.25635794
235	0xbe487534	-0.1957596
236	0x3e9b24f1	0.30301622
237	0x3ea8e452	0.32986695
238	0xbe6454fa	-0.22298041
239	0x3e912dee	0.28355354
240	0x3e54d173	0.20783024
241	0xbe5a404b	-0.21313588
242	0x3e3db40d	0.18525715
243	0x3dcc4305	0.099737205
244	0xbe7d5e81	-0.24743082
245	0xbde403f5	-0.11133567
246	0xbe932884	-0.28741848
247	0xbe7a2438	-0.24427879
248	0x3e3bffaa	0.18359247
249	0x3e04d93b	0.12973492
250	0x3df0e792	0.117629185
251	0xbdef322d	-0.11679492
252	0xbe238c50	-0.15971494
253	0x3e109ba1	0.14121868
254	0xbdf4026f	-0.11914527
255	0xbd521219	-0.05128679

weight_hh_l0 f4 [256, 64]
0	0xbd12e70b	-0.03586487
1	0x3cd2cbfa	0.02573203
2	0x3a42c612	0.00074300275
3	0x3bfffa7a	0.0078118416
4	0x3d0155c3	0.03157593
5	0x3c74bf62	0.014938207
6	0x3da49022	0.08035304
7	0x3cf14078	0.029449686
8	0xbdbb287b	-0.091385804
9	0xbd807565	-0.06272391
10	0x3db48f46	0.0881639
11	0xbdacf2b8	-0.084447324
12	0x3c169a2e	0.009192033
13	0x3d787f32	0.060668178
14	0x3dd133b6	0.10214941
15	0x3df77a6a	0.120838955
16	0xbc37e11c	-0.011223104
17	0xbdd8262a	-0.10554154
18	0x3cecc628	0.028903082
19	0x3d5785d2	0.052617855
20	0xbc69f01b	-0.014278437
21	0x3d6f964d	0.058492947
22	0x3d8adae8	0.06780034
23	0x3c8e44cb	0.017366787
24	0xba065140	-0.00051238015
25	0xbdcaae4d	-0.098965265
26	0xbd6a417c	-0.057191357
27	0xbc932d22	-0.017965857
28	0x3dd1a3cd	0.10236321
29	0x3dee5401	0.11637116
30	0x3cd8e96f	0.026478497
31	0x3de1cb9d	0.11025164
32	0xbdab1337	-0.08353274
33	0x3de60a56	0.1123244
34	0xbd5119fe	-0.05105018
35	0x3deb9315	0.11502663
36	0x3dedc039	0.11608929
37	0xbb8795ab	-0.004137715
38	0x3d925742	0.07145549
39	0x3dabd869	0.08390886
40	0xbd3676c4	-0.044546857
41	0x3d960d86	0.07326798
42	0xbd0bb5d3	-0.034108948
43	0x3dea2c2b	0.114342056
44	0x3d8d2e2d	0.06893573
45	0x3c605544	0.013692204
46	0x3d946d32	0.0724739
47	0xbd8ab81a	-0.06773396
48	0x3c97b970	0.01852104
49	0x3d9eae4c	0.07748088
50	0xbdd7b05c	-0.10531685
51	0xbdc9de15	-0.09856812
52	0x3bb91480	0.0056481957
53	0xbd11767f	-0.035513397
54	0x3daea8a6	0.08528261
55	0x3d2f3241	0.042772535
56	0x3d0512e1	0.032488707
57	0x3dc039de	0.09386037
58	0xbcbe2bee	-0.023214307
59	0x3df46fcd	0.11935387
60	0xbdb4ed88	-0.08834368
61	0x3d5d35ab	0.05400626
62	0x3cb90ccd	0.022589112
63	0x3db7cfc1	0.08975173
64	0xbe0d6374	-0.1380747
65	0x3c67f339	0.01415711
66	0xbd84bb9d	-0.06481097
67	0x3d803d12	0.06261648
68	0x3dd0a299	0.10187263
69	0x3cdc71fd	0.026909823
70	0xbd8f2838	-0.06990093
71	0xbd4617ba	-0.04836247
72	0xbe0e8c18	-0.13920629
73	0xbe251c82	-0.16124156
74	0xbd5d413f	-0.0540173
75	0xbd16a64e	-0.036779694
76	0x3c922118	0.017838046
77	0xbd8b5523	-0.06803348
78	0xbd8e23dc	-0.069404334
79	0xbd8ceb06	-0.06880765
80	0xbd79ddd4	-0.061002567
81	0x3d3601ae	0.044435196
82	0xbd7bc3fb	-0.0614662
83	0x3d222ec2	0.039595373
84	0x3d816e9c	0.06319925
85	0xbd59a8a5	-0.053139348
86	0x3d60bc90	0.054867327
87	0xbd02a349	-0.031894002
88	0xbdbf4232	-0.09338798
89	0x3d47c515	0.048771936
90	0xbdd6f6e5	-0.1049631
91	0xbc346ee0	-0.011012763
92	0xbd2a9fcb	-0.041656297
93	0xbdbc5303	-0.09195521
94	0x3dec8a83	0.115498565
95	0x3dbbcc37	0.0916981
96	0x3d540420	0.051761746
97	0xbd1c8ffa	-0.038223244
98	0x3d773a83	0.060358535
99	0x3d547c87	0.05187657
100	0xbdf32045	-0.11871389
101	0xbbed37ac	-0.0072393026
102	0xbdeddeb1	-0.11614741
103	0x3c8bc7e4	0.017063089
104	0x3d843c5b	0.064568244
105	0x3d7ab35c	0.061206207
106	0xbbd7864c	-0.0065772887
107	0xbd6ff9a5	-0.05858769
108	0x3a01f277	0.00049570895
109	0x3c0342ad	0.008011502
110	0xbd3a2c6f	-0.04545253
111	0xbddadcaf	-0.10686623
112	0x3dfce3ec	0.1234816
113	0x3e10305e	0.1408095
114	0x3c53f55f	0.012936919
115	0xbd1d80e8	-0.038453013
116	0x3dad6e93	0.08468356
117	0x3da57641	0.08079196
118	0x3d83a33f	0.06427621
119	0xba14a9bd	-0.0005671045
120	0x3da8aa18	0.08235568
121	0x3d81b65a	0.06333609
122	0xbc67d5cc	-0.014150094
123	0x3da8d95e	0.082445845
124	0x3d7f4990	0.062326014
125	0xbd025b08	-0.031825095
126	0xbe03a224	-0.1285482
127	0xbde2bb0f	-0.11070835
128	0xbcb54f1a	-0.022132445
129	0x3e5d93c3	0.21638398
130	0x3b497380	0.003073901
131	0x3ca24304	0.019807346
132	0x3d257262	0.040392287
133	0xbd7d98e1	-0.061913375
134	0xbe39ef63	-0.18157725
135	0xbd7262a7	-0.059176113
136	0xbe1511c0	-0.14557552
137	0xbe2913ff	-0.16511534
138	0xbe7f4a7a	-0.24930754
139	0x3d1464b4	0.03622885
140	0x3da6f64e	0.08152448
141	0xbb8084f4	-0.0039220992
142	0xbde022a2	-0.10944106
143	0x3da8bc05	0.08238987
144	0x3defd635	0.117107786
145	0x3ddf61b8	0.1090731
146	0xbe174d1d	-0.1477551
147	0xbe3ab475	-0.18232901
148	0x3e48595d	0.1956534
149	0x3cb4656b	0.022021016
150	0xbe35c66c	-0.17751473
151	0x3e475c7d	0.19468875
152	0xbd20c7b8	-0.039252967
153	0x3e8211d6	0.25404233
154	0xbe59acfa	-0.21257392
155	0xbda0d7a3	-0.078536294
156	0x3d7e6dc7	0.06211641
157	0x3e304be8	0.17216456
158	0x3dc0d1ec	0.094150394
159	0xbe145063	-0.1448379
160	0xbdca6b93	-0.098837994
161	0x3c2d940a	0.010594377
162	0x3df28028	0.1184085
163	0x3e6beddc	0.23039955
164	0xbdb2fe74	-0.08739939
165	0x3e74f3bb	0.23921101
166	0xbaa8d960	-0.0012882166
167	0xbd4ffe63	-0.05077971
168	0x3e471f48	0.19445527
169	0xbdbdc2a3	-0.0926564
170	0xbd9bc1b2	-0.07605304
171	0x3e5e4cb2	0.21708944
172	0x3e069f56	0.1314672
173	0x3dd551a5	0.10415963
174	0xbdb6df3d	-0.08929298
175	0xbe510bd4	-0.20414668
176	0x3e41f9d9	0.18942966
177	0x3e6bc837	0.23025595
178	0xbe4ffa4c	-0.20310324
179	0x3d58ab4a	0.05289773
180	0xbe162c69	-0.14665379
181	0xbdbacf81	-0.091216095
182	0x3d69bae2	0.05706299
183	0xbe81b19e	-0.25330824
184	0xbe156fc1	-0.14593412
185	0xbd704d36	-0.058667384
186	0x3d77b787	0.06047776
187	0xbe7bdba0	-0.24595499
188	0xbd4e1342	-0.050311334
189	0xbe13bcf7	-0.14427553
190	0xbdd96c5f	-0.10616373
191	0x3c630483	0.013856056
192	0xbdde0a59	-0.108418174
193	0x3dcf298c	0.10115346
194	0xbd056316	-0.0325652
195	0x3e15c049	0.14624132
196	0x3dea34ac	0.114358276
197	0xbe2eeb9e	-0.17082068
198	0x3cab29e3	0.020893997
199	0xbdfc8e0c	-0.12331781
200	0xbccbef53	-0.024894392
201	0xbc52366e	-0.01283036
202	0xbd6eb104	-0.058274284
203	0x3e0bd345	0.13654812
204	0x3d6acb28	0.05732265
205	0xbd4183b8	-0.047244757
206	0xbd420759	-0.04737029
207	0x3e0e5090	0.1389792
208	0x3df24d21	0.118311174
209	0x3deacd56	0.11464946
210	0x3dad31ec	0.084567875
211	0xbdf15251	-0.11783279
212	0x3e0926f3	0.13393764
213	0x3e0f2be0	0.1398158
214	0xbdb93c6d	-0.090447284
215	0x3e1e9443	0.15486245
216	0xbc8ba248	-0.017045155
217	0x3d9a748e	0.07541762
218	0x3a46e9dc	0.00075879483
219	0xbe12ea49	-0.14347185
220	0x3e3edc76	0.18638787
221	0x3e360961	0.17777015
222	0x3e0cb05f	0.13739155
223	0xbca903b4	-0.020631649
224	0xbe221728	-0.15829146
225	0xbc7e3f8a	-0.015518079
226	0x3d3dad02	0.04630757
227	0xbc035432	-0.008015679
228	0x3d5f11ae	0.05446022
229	0x3dbd98eb	0.092576824
230	0xbe27b057	-0.16375862
231	0xbe475a8c	-0.19468135
232	0x3e154e2b	0.145806
233	0xbd8d3885	-0.06895546
234	0xbe443445	-0.19160564
235	0xbca8d7a8	-0.020610645
236	0x3be8cfc1	0.0071048443
237	0x3e1c9277	0.15290247
238	0x3d9f995f	0.07792925
239	0xbe4630a6	-0.19354495
240	0x3d3fbc33	0.04681034
241	0x3e4373f5	0.19087203
242	0xbb44098f	-0.0029912924
243	0x3d2bac17	0.041912165
244	0x3dd557ca	0.10417135
245	0xbd9893e0	-0.0745008
246	0x3d874055	0.06604067
247	0xbe4176e3	-0.18893008
248	0xbd98c325	-0.07459096
249	0xbc7594e8	-0.014989115
250	0x3df1a80e	0.11799632
251	0xbd6aa3be	-0.057285063
252	0xbd87fd8c	-0.06640157
253	0xbc2e5780	-0.010640979
254	0xbe3fb5f1	-0.18721749
255	0xbde2f117	-0.110811405

bias_ih_l0 f4 [256]
0	0x3ce576ef	0.028010814
1	0xbd0acd96	-0.03388747
2	0x3e88da11	0.2672887
3	0x3d94b8d8	0.07261819
4	0x3e246c20	0.16056871
5	0x3bd251cc	0.0064184424
6	0x3cd0e620	0.025500357
7	0x3bfd2865	0.0077257627
8	0x3dcc4818	0.09974688
9	0x3dc8933a	0.09793706
10	0x3e522a50	0.20523953
11	0xba6ae8d0	-0.00089610834
12	0x3e789696	0.24276194
13	0x3e82070a	0.25395995
14	0x3e0bdc30	0.13658214
15	0x3d382df4	0.0449657
16	0x3e1892d8	0.14899766
17	0x3d01f1cd	0.03172474
18	0x3e3ca2ba	0.1842145
19	0x3d8d4894	0.06898609
20	0x3ce3fbbb	0.027829995
21	0x3e4e6d0f	0.2015879
22	0x3e1a3f56	0.15063223
23	0x3d9bd3fc	0.07608792
24	0xbd716d3d	-0.05894207
25	0x3c87546e	0.016519751
26	0xbd86c553	-0.06580605
27	0x3d3b95df	0.045797225
28	0x3e577941	0.21042348
29	0x3e921869	0.28534248
30	0x3dd0b99d	0.10191653
31	0x3e28c1cc	0.16480178
32	0x3e4c2acb	0.19938199
33	0xbd1a3249	-0.037645612
34	0x3e5224f7	0.20521913
35	0x3d2efdd5	0.04272254
36	0x3ce08c56	0.027410667
37	0x3dff9a47	0.12480598
38	0x3e09a8b0	0.13443255
39	0x3e6dc981	0.23221399
40	0x3c941b50	0.01807943
41	0x3dafa0f6	0.08575623
42	0x3de306a1	0.11085249
43	0x3e0f0385	0.13966186
44	0x3e3e620d	0.18592091
45	0xbd374501	-0.04474354
46	0x3dcb2a6c	0.09920201
47	0xbc8dd988	-0.017315641
48	0x3dd9f765	0.1064289
49	0xbd8661fd	-0.065616585
50	0x3d2f1315	0.042742807
51	0xbd110e5a	-0.035414077
52	0x3e59e80c	0.21279925
53	0xbbd3e999	-0.006467056
54	0x3e7b69c6	0.24552068
55	0x3d9f77af	0.077865
56	0x3c4930de	0.012279717
57	0x3e0f8f1b	0.14019434
58	0x3e09a7cb	0.13442914
59	0x3e7463a0	0.23866129
60	0x3e2748cb	0.16336362
61	0xbcbb49dc	-0.022862367
62	0x3e699731	0.22811581
63	0x3e293aff	0.16526411
64	0x3dc967c5	0.098342456
65	0xbc4f8cc6	-0.01266784
66	0x3db85489	0.09000499
67	0xbd3bb7df	-0.04582965
68	0x3dbf9302	0.093542114
69	0x3de2d2ad	0.110753395
70	0xbdbb1a5c	-0.09135887
71	0x3e060198	0.13086545
72	0x3c7ee517	0.015557549
73	0xbd0d6176	-0.034516774
74	0x3d8ee5e9	0.06977446
75	0x3d6e471a	0.058173276
76	0xbd76ae75	-0.06022497
77	0xbd1d69cd	-0.038430978
78	0xbe0383b0	-0.12843204
79	0xbceb9b5c	-0.028760605
80	0x3dacf2b7	0.08444732
81	0xbde94ac3	-0.11391213
82	0xbe1451f8	-0.14484394
83	0x3db7fd7a	0.08983894
84	0xbd9ba47e	-0.07599734
85	0x3df4cb9a	0.119528964
86	0xbdd72e6b	-0.105069004
87	0x3da94fe1	0.08267189
88	0xbd5ec3fa	-0.054386117
89	0x3dd10ee0	0.10207915
90	0xbd9aff1f	-0.07568192
91	0xbc4e7b32	-0.012602614
92	0x3e31ea41	0.17374517
93	0x3dcde43d	0.100532986
94	0xbca81239	-0.020516502
95	0xbd19a69f	-0.037512418
96	0xbd4c7782	-0.04991866
97	0x3d8e608d	0.06952009
98	0xbd5ff12c	-0.05467336
99	0x3d8c059a	0.06837006
100	0x3c7198f6	0.014745941
101	0x3d64e5f8	0.055883378
102	0x3dfdb171	0.1238736
103	0x3d562000	0.05227661
104	0xbd0e2248	-0.034700662
105	0xbb890b7b	-0.004182277
106	0x3dc45067	0.09585648
107	0x3ddf1d82	0.108943
108	0xbd8b97de	-0.06816076
109	0x3d243412	0.04008872
110	0xbdf9efd4	-0.12203947
111	0xbdcd5bea	-0.10027297
112	0x3e060530	0.13087916
113	0xbd8239b1	-0.0635866
114	0xbd9c8ccc	-0.076440424
115	0x3de9c733	0.11414947
116	0x3d095d24	0.03353609
117	0x3cb5b4b5	0.022180894
118	0x3c13fa53	0.00903185
119	0xbd9bf953	-0.07615914
120	0x3d6073f9	0.0547981
121	0xbdc188b9	-0.09449906
122	0xbdbd3b55	-0.09239832
123	0xbd558ebd	-0.05213808
124	0xbdab1263	-0.08353116
125	0xbd3544d8	-0.044255108
126	0xbc8600dd	-0.016357834
127	0x3e221394	0.15827781
128	0x3d1ba689	0.038000617
129	0x3d39d563	0.045369517
130	0xbe3de65c	-0.18544906
131	0x3dde175f	0.108443014
132	0x3da364f0	0.07978237
133	0x3d1cb64c	0.03825979
134	0xbdc4f4cc	-0.09617004
135	0xbd6e68e0	-0.058205485
136	0xbdf01624	-0.11722973
137	0xbdf44621	-0.119274385
138	0xbe1774fd	-0.14790721
139	0x3cd8d624	0.026469298
140	0x3dc9943f	0.09842729
141	0xbe8efaae	-0.27925628
142	0xbd81a0e8	-0.063295186
143	0x3e0b34a2	0.13594297
144	0x3dd9ada3	0.10628822
145	0x3e09ca62	0.13456109
146	0x3d5eeacb	0.054423135
147	0xbddea9f6	-0.10872261
148	0x3da3c34c	0.07996234
149	0x3d983648	0.07432228
150	0xbe215325	-0.15754373
151	0x3e09707a	0.13421813
152	0x3d62ff5b	0.055419307
153	0xbd1a98fb	-0.03774355
154	0xbcae0c80	-0.021246195
155	0xbdbc17f1	-0.09184254
156	0x3e9bb369	0.30410317
157	0x3e40442b	0.18776004
158	0x3de19c5b	0.110161506
159	0xbe2a55c0	-0.16634274
160	0xbe9e20cc	-0.30884397
161	0x3d987bb4	0.074454695
162	0x3e8cd020	0.27502537
163	0x3dc9a9d5	0.09846846
164	0x3dbe3cc9	0.092889376
165	0x3db82999	0.08992309
166	0xbdd0b926	-0.10191564
167	0xbe229c04	-0.15879828
168	0x3e3af9f3	0.1825941
169	0xbe3a124d	-0.18171044
170	0xbe075eb2	-0.13219717
171	0xbcaa5c69	-0.020796018
172	0x3e1dfcb4	0.1542843
173	0x3d6cf98a	0.057855166
174	0xbcf34efd	-0.02970075
175	0xbc0c915e	-0.00857958
176	0x3dfc7311	0.12326635
177	0x3d392eab	0.04521052
178	0xbd66a7c9	-0.056312356
179	0x3ddac06f	0.10681235
180	0x3d38c405	0.045108814
181	0xbd8e6def	-0.06954562
182	0x3d516219	0.051118944
183	0xbd0565fd	-0.032567967
184	0xbdb69462	-0.089150205
185	0xbd2ca619	-0.04215059
186	0x3dfb6541	0.12275172
187	0xbe9083b0	-0.2822547
188	0xbcb7e424	-0.022447653
189	0xbdaee04d	-0.08538876
190	0xbdc185e8	-0.09449369
191	0xbdd1b5ad	-0.1023973
192	0x3e0b82dd	0.13624139
193	0x3d7d2d69	0.061810885
194	0xbbe068a5	-0.006848412
195	0x3e37ce29	0.17949738
196	0x3e471e6a	0.19445196
197	0x3d5e3c81	0.05425692
198	0x3d10df85	0.035369415
199	0x3db9befa	0.09069629
200	0x3de81cbd	0.113336064
201	0xbd49f0e3	-0.049301993
202	0x3e44e01c	0.19226116
203	0x3e090ea6	0.13384494
204	0xbd21d290	-0.03950745
205	0x3c6c2238	0.014412455
206	0x3e0866b3	0.13320427
207	0x3e554cdb	0.208301
208	0xbc0d50e9	-0.0086252475
209	0x3d03bb42	0.032161005
210	0x3de9ae21	0.114101656
211	0xbcc79ee0	-0.02436775
212	0x3b384f78	0.002812354
213	0x3e65efc6	0.22454748
214	0x3e0f23f2	0.13978556
215	0xba94452f	-0.0011312122
216	0x3cedbf4b	0.02902188
217	0x3d080c1c	0.033214673
218	0xbae36cf3	-0.0017351195
219	0x3e34d9c9	0.17661203
220	0x3dbfbaaa	0.09361775
221	0x3de09ae0	0.1096704
222	0xbd88f3aa	-0.066871
223	0x3defff54	0.11718622
224	0x3dd6577f	0.10465907
225	0x3e323829	0.17404236
226	0x3e134bce	0.14384386
227	0x3c52057a	0.0128186885
228	0xbd0091f7	-0.031389203
229	0xbc1412e9	-0.009037712
230	0x3d74539a	0.05965004
231	0x3dec0366	0.11524086
232	0x3e29941f	0.1656041
233	0x3e21785f	0.15768574
234	0x3e54b631	0.20772626
235	0x3d019277	0.03163382
236	0x3c8eae71	0.017417165
237	0x3d2c8181	0.042115692
238	0x3e081ab2	0.13291433
239	0x3e62202e	0.22082588
240	0x3d233611	0.039846484
241	0xbd392761	-0.04520357
242	0x3e315451	0.1731732
243	0xbd4349e1	-0.04767788
244	0x3e4e2444	0.20131022
245	0x3d9727b6	0.07380621
246	0x3e634aa6	0.22196445
247	0x3e323396	0.17402491
248	0x3d3994c6	0.045307897
249	0xbca1b0d6	-0.019737642
250	0x3e08a787	0.13345157
251	0x3e790ab8	0.24320495
252	0x3e1f10dd	0.15533777
253	0x3d94dc12	0.072685376
254	0x3de4aaa3	0.11165359
255	0xbd3ccc0a	-0.046093024

bias_hh_l0 f4 [256]
0	0x3d722795	0.05911978
1	0x3e2acc84	0.16679579
2	0x3e29b554	0.16573077
3	0x3c94cb56	0.018163364
4	0x3e37a244	0.17932993
5	0x3cd013d1	0.025400074
6	0x3dd24127	0.10266333
7	0x3c8ac568	0.016939834
8	0xbd92f498	-0.07175559
9	0x3d909876	0.070603296
10	0x3db766e0	0.08955169
11	0xbc192d58	-0.00934919
12	0x3e0de31b	0.13856165
13	0x3e8a7b23	0.2704707
14	0x3c14113f	0.009037315
15	0x3d01b93e	0.0316708
16	0xbd119960	-0.03554666
17	0x3e51a4f4	0.20473081
18	0x3e49fc8d	0.19725247
19	0x3da57850	0.080795884
20	0xbcfde8e8	-0.030994847
21	0x3dae1579	0.08500189
22	0x3e253eb3	0.16137199
23	0xbd4e2aed	-0.050333906
24	0xbbe431bf	-0.006963938
25	0x3d069fd7	0.03286728
26	0x3e0102c8	0.12598717
27	0x3df44946	0.11928038
28	0x3eb66e03	0.35630807
29	0x3df8d23b	0.12149473
30	0xbd03601a	-0.03207407
31	0x3deeb8c2	0.116563335
32	0x3e4f7a4c	0.20261496
33	0x3e22fcb6	0.15916714
34	0x3e85e63a	0.2615221
35	0x3e12d8da	0.14340535
36	0x3cdbf3e9	0.026849704
37	0x3db6a3fe	0.08917998
38	0x3d8db1d1	0.069186814
39	0x3db17f77	0.0866689
40	0x3e4103b1	0.18849064
41	0x3d254ce2	0.040356524
42	0x3d465f5a	0.048430778
43	0x3d8de9b5	0.06929342
44	0xbb88ec4c	-0.0041785594
45	0x3dfd6a68	0.12373811
46	0x3da6a5c0	0.08137083
47	0x3bb89cfd	0.005633949
48	0x3e53b9d2	0.20676354
49	0x3cee2ef3	0.029075122
50	0x3e5c3bf7	0.2150725
51	0x3c9afb9a	0.018918801
52	0x3d21d348	0.039508134
53	0x3e01b004	0.12664801
54	0x3e4c7689	0.19967093
55	0x3e49de48	0.197137
56	0x3e3dfbdd	0.1855311
57	0x3e71fe0a	0.23632064
58	0x3dee72b1	0.116429694
59	0x3ea0462d	0.3130354
60	0x3d75400f	0.059875544
61	0x3c2ab959	0.010420167
62	0x3d8057e9	0.062667675
63	0x3e607a1d	0.21921583
64	0x3e010fa7	0.12603627
65	0x3d3d8956	0.046273552
66	0x3e142bac	0.14469784
67	0x3e0513c0	0.12995815
68	0xbd0fd694	-0.035116747
69	0x3dcd325b	0.1001937
70	0xbd87b52a	-0.06626351
71	0x3d8bd42c	0.06827578
72	0x3d769a08	0.06020549
73	0xbc04ca46	-0.008104866
74	0x3d3d8862	0.046272643
75	0xbd85d675	-0.06535045
76	0x3df13897	0.11778372
77	0x3dc0ba08	0.09410483
78	0xbd00286d	-0.031288553
79	0x3e0d264c	0.1378414
80	0x3d3c8e0a	0.046033897
81	0x3dc00e43	0.0937772
82	0xbe0154be	-0.12629983
83	0x3d693ec5	0.056944627
84	0x3cca33f3	0.024682974
85	0x3dc3c286	0.09558587
86	0xbda0aa30	-0.07844961
87	0xbb96d2e6	-0.004602778
88	0x3df86f05	0.1213055
89	0xbc802fef	-0.015647857
90	0xbde47b99	-0.11156387
91	0x3dbd2179	0.092349
92	0xbd1e0f66	-0.038588904
93	0x3e2af06a	0.16693273
94	0x3e072bca	0.13200298
95	0xbd970f84	-0.07376006
96	0xbd8e20ad	-0.06939826
97	0xbd00f12f	-0.03148001
98	0x3d317ef9	0.04333398
99	0x3da98aec	0.0827845
100	0xbd4e33c5	-0.05034234
101	0xbdd63475	-0.10459224
102	0x3ca33e57	0.019927187
103	0xbd32140b	-0.043476146
104	0x3c16af70	0.009197101
105	0xbd1bc367	-0.038028147
106	0xbd70c8a6	-0.058785103
107	0xbd5c149d	-0.053730596
108	0xbbdd7c4f	-0.0067592035
109	0xbd5d578a	-0.054038562
110	0xbe009911	-0.1255839
111	0x3d1d037b	0.038333397
112	0x3e13c3c8	0.14430153
113	0xbac7dbaa	-0.001524796
114	0x3d35899e	0.044320695
115	0x3d73b79a	0.059501268
116	0xbd29a7cf	-0.0414198
117	0x3cf9cae2	0.03049225
118	0xbd969c55	-0.07354037
119	0x3e2a0a87	0.16605578
120	0xbbc2e689	-0.005947892
121	0xbd041470	-0.032246053
122	0xbd14f092	-0.03636224
123	0x3c757933	0.014982509
124	0xbd692561	-0.056920413
125	0xbd159039	-0.036514495
126	0xbc3f2762	-0.011667104
127	0x3e1eee48	0.15520585
128	0xbc759570	-0.014989242
129	0x3e295340	0.16535664
130	0xbe71b12b	-0.2360274
131	0x3d50b5da	0.050954677
132	0x3dd617be	0.10453747
133	0xbe2309d5	-0.1592172
134	0x3c492419	0.012276673
135	0xbde5eea6	-0.11227159
136	0xbdf5662f	-0.119823806
137	0x3d86f618	0.065899074
138	0xbc52ad6a	-0.012858728
139	0x3da71547	0.08158355
140	0x3e30e34a	0.17274204
141	0xbe304f5e	-0.17217776
142	0xbd818708	-0.06324583
143	0x3e1a41b8	0.15064132
144	0x3d329489	0.043598685
145	0xbd5fa2a6	-0.054598473
146	0x3daa0f8c	0.083037466
147	0x3d0d52e1	0.034502868
148	0x3da0d72b	0.0785354
149	0x3da3267a	0.07966323
150	0xbe20e79c	-0.15713352
151	0x3e193822	0.14962819
152	0xbe292fec	-0.16522187
153	0x3e21f76f	0.15817045
154	0x3d58f75a	0.052970268
155	0xbe8c6705	-0.27422348
156	0x3ea40173	0.32032356
157	0x3e13a362	0.14417794
158	0x3d4ad344	0.049517885
159	0xbd965b6f	-0.07341658
160	0xbe805772	-0.25066715
161	0x3ce28578	0.027651533
162	0x3e675be6	0.2259365
163	0x3de7c1df	0.11316275
164	0xbdfd52a9	-0.12369282
165	0x3dfbeaa8	0.123006165
166	0xbdf4858a	-0.11939533
167	0xbe00240c	-0.12513751
168	0x3e14eddf	0.14543866
169	0xbde102d1	-0.10986865
170	0x3d1c2101	0.038117412
171	0x3de3cbcc	0.111228555
172	0x3e2b4fb5	0.16729625
173	0x3d815e2b	0.06316789
174	0xbda321c6	-0.07965426
175	0xbda98aaa	-0.08278401
176	0x3c86e7dd	0.016467983
177	0x3d3e48b0	0.04645604
178	0x3cf8b367	0.030358983
179	0x3d5bd109	0.05366615
180	0xbd747d69	-0.059689913
181	0xbe0515f7	-0.1299666
182	0x3d010018	0.03149423
183	0xbe496aa3	-0.19669585
184	0xbd71f083	-0.05906726
185	0x3c814125	0.015778134
186	0x3e10bc87	0.14134417
187	0xbe862dd7	-0.26206848
188	0xbe214b92	-0.15751484
189	0x3da35de9	0.07976896
190	0xbca2027d	-0.019776577
191	0xbeafdf24	-0.3434993
192	0x3d8e02ab	0.069341026
193	0x3e278f44	0.16363245
194	0x3df8f5e1	0.12156273
195	0xbbfc9452	-0.007708111
196	0x3df841e4	0.12121943
197	0x3e412b56	0.18864188
198	0xbd645258	-0.05574259
199	0x3d2f5b64	0.042811766
200	0x3ddcc155	0.10779063
201	0xbd43e51e	-0.047825925
202	0x3d78a452	0.060703583
203	0x3e68db30	0.22739863
204	0x3e058c50	0.13041806
205	0x3d78c946	0.060738824
206	0x3d2979dc	0.04137598
207	0x3e465a68	0.19370425
208	0x3e57a4e1	0.2105899
209	0x3dfa28d2	0.12214817
210	0x3e01909d	0.12652822
211	0x3c83cf75	0.016090134
212	0x3e2c2279	0.16810025
213	0x3e5cb11e	0.2155194
214	0x3e4c49ea	0.19950071
215	0x3e04f28d	0.12983151
216	0xbc6e8991	-0.014559166
217	0x3dd51776	0.104048654
218	0x3d0b5520	0.03401673
219	0x3e21e236	0.15808949
220	0xbd2e4dde	-0.04255473
221	0x3db8b557	0.09018963
222	0xbd8ce504	-0.06879619
223	0x3da62dbb	0.08114191
224	0x3e268386	0.1626111
225	0x3e152218	0.14563787
226	0x3dd45378	0.10367483
227	0xbc7eb191	-0.015545265
228	0x3d91cb50	0.07118857
229	0x3d89f7de	0.0673673
230	0xbc5edb5d	-0.013602105
231	0x3e39102b	0.18072574
232	0x3e18a74d	0.1490757
233	0x3e416f80	0.1889019
234	0x3e419ef4	0.18908292
235	0x3d555e43	0.052091848
236	0x3c2c45dc	0.010514703
237	0x3d935c13	0.07195296
238	0x3ccd2121	0.025040211
239	0x3d367496	0.04454478
240	0xbd06978c	-0.03285937
241	0x3dc7fcad	0.09764991
242	0x3e38e7cc	0.18057173
243	0xbc7e9b22	-0.015539916
244	0x3c8cc330	0.017182916
245	0x3e4ff688	0.20308888
246	0x3dfba2f0	0.12286937
247	0x3e213441	0.1574259
248	0xbd836572	-0.064158335
249	0x3d949748	0.07255417
250	0x3ddd02e2	0.107915655
251	0x3dabde48	0.08392006
252	0x3c20997d	0.009802219
253	0x3daef00b	0.08541878
254	0x3e138970	0.14407897
255	0x3d28d87f	0.04122209
