TIMEBAND/pretrained/sample/netG.pth (torch, 531867 bytes, 14 tensors)

weight_ih_l0 f4 [128, 22]
-0.10114415 -0.12500742 -0.15106101 -0.1728271 0.09183967 -0.069219716 -0.13796617 0.18623233
0.031989407 0.18486708 0.1787076 0.19089189 -0.016034342 -0.12569971 0.04547621 -0.07951746
0.090417475 0.0012126999 0.14128943 0.018271718 0.013769458 -0.0921123 0.09470822 0.042081125
-0.21719213 -0.18286437 -0.1837304 -0.06900624 0.09548808 0.055558074 0.028482629 0.22554298
0.19692858 -0.043437116 0.09416091 0.17522505 0.060568564 -0.07033215 0.109465756 0.09028532
0.17962164 -0.051519535 -0.062338877 0.111328214 0.040674206 -0.12436588 -0.10206637 0.05896014
-0.066399224 0.054169517 0.17914002 -0.05349466 0.17975554 0.012207066 0.035610307 0.017449915
0.13739781 0.22567649 0.18568672 -0.062352784 0.17607468 0.093936704 -0.066806406 0.10816306
0.20688541 0.123576656 -0.14262576 0.07998406 -0.04674448 -0.19016096 -0.10538739 -0.031245194
-0.062205516 0.060189288 0.16048484 0.031341672 -0.09668124 0.10681119 -0.030672932 0.06379857
-0.06852973 0.0052488474 0.18327743 0.09193793 -0.11086956 -0.07521781 0.12094916 0.15533711
0.02549209 0.052455913 -0.10375959 0.124791086 -0.28212494 0.0852668 0.16586089 0.14611007
0.171018 -0.035927262 0.09065252 0.2491066 -0.046531565 0.002140022 0.14444365 0.2597255
-0.06661737 0.3036018 0.086828776 0.037792485 0.26128855 -0.023818906 -0.09180595 0.103872575
-0.1463534 -0.11512325 -0.11996017 0.029663181 0.17621338 -0.11832694 0.02336712 0.12543625
0.18006757 -0.060729627 0.20134994 -0.031368315 0.090233676 0.02427046 0.08780105 0.122290365
0.0707348 -0.02186107 -0.093094945 -0.030108063 -0.21175608 -0.12046856 -0.09350506 0.051301572
0.13752349 0.15806721 0.18022007 -0.06015119 0.0704123 0.011190343 -0.061346184 0.106145404
-0.07026157 -0.11897884 -0.111261904 -0.13455504 -0.03481635 -0.08362514 0.13206571 -0.08132622
0.1317871 -0.066014625 0.10486719 0.09727412 -0.078383245 0.06326231 -0.17515019 0.20318462
0.06296265 0.0037608242 0.22219543 0.27345598 0.041719433 -0.028441943 0.0768033 0.2044724
-0.13274251 0.1478026 0.19351137 0.0080106445 0.120550595 -0.021251597 0.13484891 0.23422895
0.10251842 -0.20723544 -0.09919937 0.018220212 -0.21382698 0.063545 0.14232515 0.12057902
0.1233399 -0.024218673 0.19664517 -0.048448574 0.09127211 -0.009054661 -0.09866327 0.06719748
0.06667719 0.1579441 -0.0017625778 -0.008861446 0.23125586 0.015049264 -0.09714761 -0.037452485
0.08387142 -0.055874307 -0.1869641 0.123318404 0.087718 -0.0029325923 -0.08569943 0.06881562
0.08831819 0.12462983 0.19151703 0.19307487 0.17879565 0.21145502 0.030953944 0.21043497
-0.03793647 0.19754058 0.09228 0.23716728 0.0790025 -0.064367585 -0.069788 -0.12728637
-0.13440654 0.051610112 -0.032291774 -0.03787257 -0.02608194 0.16335462 0.18818244 -0.057136178
-0.1288327 0.13869601 0.011226118 0.1704743 -0.030040575 0.20191593 0.18024847 0.09580636
0.12522395 0.028808368 -0.12605834 0.056656267 -0.16564943 0.098224826 -0.070559874 0.14162424
0.02746892 -0.026716357 0.19454698 0.2589332 -0.014708723 -0.07816273 -0.102127895 0.15201019
00000000: aa24 cfbd f201 00be bdaf 1abe 96f9 30be
00000010: 7016 bc3d 11c3 8dbd 0147 0dbe b0b3 3e3e
00000020: 5307 033d cc4d 3d3e 20ff 363e 2a79 433e
00000030: 745a 83bc 6db7 00be 4345 3a3d 0dda a2bd
00000040: cc2c b93d 75f3 9e3a 2dae 103e 92ae 953c
00000050: 4b99 613c 60a5 bcbd 62f6 c13d 425d 2c3d
00000060: 9d67 5ebe cc40 3bbe d223 3cbe 2553 8dbd
00000070: 418f c33d dd90 633d 6754 e93c bdf4 663e
00000080: a5a7 493e 1eeb 31bd 6fd7 c03d 326e 333e
00000090: be16 783d 4d0a 90bd 952f e03d 83e7 b83d
000000a0: bcee 373e 2606 53bd 0d57 7fbd 0c00 e43d
000000b0: ff99 263d 8ab3 febd 2c08 d1bd 3080 713d
000000c0: 51fc 87bd dbe0 5d3d 7b70 373e 371d 5bbd
000000d0: d611 383e 2500 483c 1ddc 113d 20f3 8e3c
000000e0: 03b2 0c3e bd17 673e a924 3e3e a265 7fbd
000000f0: ec4c 343e e361 c03d ccd1 88bd 9884 dd3d
00000100: c5d9 533e c215 fd3d 7d0c 12be afce a33d
00000110: 2477 3fbd 8eb9 42be 58d5 d7bd ecf5 ffbc
00000120: 36cb 7ebd 0b89 763d 2356 243e 2060 003d
00000130: d000 c6bd d3bf da3d cd45 fbbc d3a8 823d
00000140: 5159 8cbd 86fe ab3b 14ad 3b3e f449 bc3d
00000150: 940f e3bd cc0b 9abd 31b4 f73d b110 1f3e
00000160: cad4 d03c 03dc 563d e87f d4bd 7892 ff3d
00000170: ae72 90be 5ca0 ae3d 70d7 293e e19d 153e
00000180: 581f 2f3e 7728 13bd 07a8 b93d cd15 7f3e
00000190: e297 3ebd 9d3f 0c3b 09e9 133e befa 843e
000001a0: b06e 88bd b271 9b3e 49d3 b13d 4bcc 1a3d
000001b0: 9dc7 853e de1f c3bc c204 bcbd 25bb d43d
000001c0: aadd 15be bdc5 ebbd adad f5bd 3300 f33c
000001d0: 4871 343e 6555 f2bd 676c bf3c 5c72 003e
000001e0: a263 383e a1bf 78bd ae2e 4e3e 107c 00bd
000001f0: 6fcc b83d d8d2 c63c 09d1 b33d 5f73 fa3d
00000200: 68dd 903d fd15 b3bc 90a8 bebd 2fa5 f6bc
00000210: 96d6 58be 38b8 f6bd 957f bfbd 9921 523d
00000220: f5d2 0c3e 5fdc 213e 9c8b 383e 1861 76bd
00000230: 5334 903d b357 373c 2346 7bbd c362 d93d
00000240: 4ce5 8fbd 2eab f3bd 48dd e3bd ccc8 09be
00000250: 979b 0ebd a843 abbd 3c3c 073e 5c8e a6bd
00000260: 33f3 063e ad32 87bd 9cc4 d63d a737 c73d
00000270: 6587 a0bd ac8f 813d 925a 33be a10f 503e
00000280: 90f2 803d 2978 763b 3387 633e 6c02 8c3e
00000290: ffe1 2a3d 14ff e8bc 0c4b 9d3d 3661 513e
000002a0: a7ed 07be 9159 173e d827 463e 143f 033c
000002b0: 3be3 f63d d417 aebc d515 0a3e b7d9 6f3e
000002c0: 2df5 d13d 8735 54be 0a29 cbbd 8e42 953c
000002d0: 76f5 5abe e223 823d afbd 113e 22f2 f63d
000002e0: a199 fc3d 3d66 c6bc 5a5d 493e 0372 46bd
000002f0: dfec ba3d 005a 14bc f80f cabd d59e 893d
00000300: 0d8e 883d 19bc 213e 4c06 e7ba 992f 11bc
00000310: 56ce 6c3e 3091 763c 53f5 c6bd c767 19bd
00000320: c7c4 ab3d 75dc 64bd 8473 3fbe 5c8e fc3d
00000330: 7fa5 b33d bc30 40bb 2f83 afbd 34ef 8c3d
00000340: 2be0 b43d ed3d ff3d 0a1d 443e 6bb5 453e
00000350: 3516 373e aa87 583e 2093 fd3c 447c 573e
00000360: 4663 1bbd 1448 4a3e 4cfd bc3d fbdb 723e
00000370: 10cc a13d 27d3 83bd 03ed 8ebd 5c57 02be
00000380: dea1 09be 2065 533d 6144 04bd 4520 1bbd
00000390: cba9 d5bc 6f46 273e e6b2 403e a007 6abd
000003a0: b8ec 03be 5406 0e3e c0ed 373c d190 2e3e
000003b0: a717 f6bc 0dc3 4e3e 0e93 383e 2036 c43d
000003c0: b53a 003e 87ff eb3c 7015 01be 6710 683d
000003d0: 01a0 29be 192a c93d b281 90bd f205 113e
000003e0: 8006 e13c 43dc dabc 5337 473e e492 843e
000003f0: dbfc 70bc c813 a0bd 6e28 d1bd 8fa8 1b3e

weight_hh_l0 f4 [128, 32]
0.14350659 0.060620535 0.06892467 -0.01182993 -0.007870852 0.18714304 -0.0001896385 -0.038225535
0.184055 -0.07663128 -0.17073022 0.033849068 -0.05566892 0.12653121 0.14854349 -0.11229844
-0.0757041 0.0054494455 -0.01864767 0.1417516 0.026816906 -0.12082524 0.13396306 0.02156787
0.08685592 0.022104913 0.05945712 -0.035053752 -0.005017029 0.16713354 0.15344986 -0.11626802
-0.042602707 0.175096 -0.12089859 0.0018137336 0.06665499 -0.034690794 0.05057799 -0.05073799
0.08290658 0.17892176 -0.019730479 -0.12865977 0.023330115 -0.15973777 0.020005135 -0.06184522
-0.0017612455 -0.081918955 0.10366475 -0.10077059 0.0536828 -0.037450515 -0.10764935 -0.1712678
0.03892633 -0.122965105 0.17609492 0.0074993502 -0.16745386 0.18837997 0.03940459 0.12303464
0.028576273 0.18341602 0.076590955 -0.0029550751 0.16397887 -0.08809231 -0.1296487 0.19994752
0.11775672 -0.14024873 -0.02421782 0.083898 -0.0017457347 -0.105733566 0.030762391 0.12356412
0.010305345 0.08710138 -0.06845132 -0.0076895077 -0.07591484 0.11740055 -0.061247606 0.029707255
0.04705984 0.047375143 0.028838597 -0.065764375 -0.063243896 0.16497415 -0.15700279 0.12734683
-0.1038796 0.19962825 -0.032734122 0.23318654 -0.07749983 0.1395796 0.025493056 -0.0069536734
0.14032978 0.19377352 -0.008560501 -0.02636008 -0.059162315 0.11918706 -0.16169348 0.087790124
0.11110452 -0.03873917 0.036526315 -0.033054277 -0.045471273 -0.13340522 -0.17313948 0.03931994
0.20989875 0.10810474 0.15859528 -0.22510673 -0.19716246 0.046778172 -0.082243584 0.10805108
0.18908137 -0.08042107 0.042257935 -0.0865321 0.073125936 0.10782264 -0.009785758 -0.10525664
-0.12029286 0.10791599 0.09751508 -0.16332778 -0.020992411 -0.093472205 -0.11155563 -0.109941535
0.10527678 -0.14181828 -0.04999564 0.0069376417 -0.12070857 -0.14249279 0.12198839 0.019197162
-0.019224819 -0.036590967 0.047235582 0.04328342 -0.17313643 -0.0019673135 0.008160407 0.21310778
-0.08597802 0.10786567 0.03269796 -0.07393367 -0.070093594 -0.099001214 0.035275493 -0.084308766
-0.08368859 -0.06151857 0.106775254 -0.119055875 -0.09866475 0.13990578 0.015384153 -0.027189687
0.03203156 0.030561598 0.14552581 -0.030316938 -0.004330773 0.14877863 0.13139446 -0.11187254
0.10929871 0.16390686 -0.12846914 0.11320823 -0.034472235 0.016066622 -0.13418825 -0.14758025
-0.113331884 0.14119393 0.038590197 -0.09421744 0.10164269 -0.083757825 -0.09353891 0.045457736
0.13784434 -0.116256244 -0.19295292 0.051226847 0.05626375 0.078163765 0.0125668375 0.0672649
-0.033362325 0.14651203 -0.098571606 0.19435897 0.000689247 0.07247808 -0.017220914 -0.0769831
0.015917072 -0.008264974 -0.006835521 -0.17051354 -0.06973932 -0.11558596 -0.15712853 0.044492945
-0.10666894 0.22935638 0.04916446 0.024914948 0.08660335 0.077588536 0.20067693 -0.029760063
0.06791806 0.016280891 0.014894931 -0.06740188 0.1379097 -0.044636987 -0.124328226 0.009924377
0.15690774 -0.09374553 0.0015499594 -0.04037997 0.06258383 0.11183198 -0.09828252 0.121660754
0.15026237 -0.05085234 0.12520438 -0.086306594 -0.057854135 -0.09652547 -0.13321695 -0.1840051
00000000: 64f3 123e 3d4d 783d 6128 8d3d 53d2 41bc
00000010: bff4 00bc 6da2 3f3e b2d9 46b9 6192 1cbd
00000020: ea78 3c3e dcf0 9cbd e7d3 2ebe 52a5 0a3d
00000030: 1805 64bd 6691 013e c91b 183e b9fc e5bd
00000040: c00a 9bbd 4391 b23b 00c3 98bc 5527 113e
00000050: 21af db3c 3973 f7bd 9d2d 093e 1aaf b03c
00000060: 84e1 b13d 5d15 b53c 4f89 733d 8694 0fbd
00000070: e465 a4bb 0e25 2b3e f621 1d3e ed1d eebd
00000080: 2d80 2ebd 5e4c 333e ae99 f7bd cdba ed3a
00000090: 6982 883d ef17 0ebd de2a 4f3d a3d2 4fbd
000000a0: edca a93d 4437 373e d0a1 a1bc 63bf 03be
000000b0: cc1e bf3c 4c92 23be cfe1 a33c 6a51 7dbd
000000c0: 98d9 e6ba 20c5 a7bd 2f4e d43d d060 cebd
000000d0: 7fe2 5b3d b665 19bd 4377 dcbd d360 2fbe
000000e0: 3771 1f3d 21d5 fbbd 3a52 343e 1cbd f53b
000000f0: 0679 2bbe aee6 403e b566 213d 96f9 fb3d
00000100: ca18 ea3c 69d1 3b3e b8db 9c3d efa9 41bb
00000110: 14ea 273e be69 b4bd a1c2 04be 0bbf 4c3e
00000120: 6f2a f13d 5d9d 0fbe 7364 c6bc b7d2 ab3d
00000130: 23d1 e4ba d78a d8bd 6901 fc3c 2f0f fd3d
00000140: c0d7 283c 3562 b23d 3530 8cbd 44f8 fbbb
00000150: 3d79 9bbd b36f f03d c5de 7abd a15c f33c
00000160: d2c1 403d 700c 423d ec3e ec3c 79af 86bd
00000170: 0486 81bd fcee 283e 57c5 20be 3567 023e
00000180: d4be d4bd 596b 4c3e 3714 06bd 74c8 6e3e
00000190: 3bb8 9ebd f4ed 0e3e d0d6 d03c a4db e3bb
000001a0: 9cb2 0f3e 916c 463e 5841 0cbc 18f1 d7bc
000001b0: 2f54 72bd 5818 f43d fa92 25be 4fcb b33d
000001c0: c48a e33d f7ac 1ebd 9e9c 153d ec63 07bd
000001d0: 1640 3abd 619b 08be 7a4b 31be f20d 213d
000001e0: b3ef 563e 0566 dd3d cd66 223e 6182 66be
000001f0: f5e4 49be 789a 3f3d 536f a8bd e249 dd3d
00000200: 8c9e 413e cdb3 a4bd a816 2d3d be37 b1bd
00000210: 0dc3 953d 1ed2 dc3d 7254 20bc cb90 d7bd
00000220: 1a5c f6bd 0f03 dd3d fcb5 c73d 663f 27be
00000230: 47f8 abbc 5b6e bfbd 4777 e4bd 0729 e1bd
00000240: 5a9b d73d d038 11be 3ac8 4cbd 2855 e33b
00000250: 0e36 f7bd a1e9 11be 0dd5 f93d 5e43 9d3c
00000260: 5e7d 9dbc 69e0 15bd 197a 413d f549 313d
00000270: ad4a 31be 0bee 00bb 3ab3 053c ed38 5a3e
00000280: 3f15 b0bd ade8 dc3d 4cee 053d 896a 97bd
00000290: 3b8d 8fbd 26c1 cabd 097d 103d 13aa acbd
000002a0: ec64 abbd e5fa 7bbd fcac da3d 91d3 f3bd
000002b0: bf10 cabd 7643 0f3e d10d 7c3c e8bc debc
000002c0: 8633 033d 515c fa3c b804 153e 3a5b f8bc
000002d0: 28e9 8dbb 6d59 183e 458c 063e 6e1d e5bd
000002e0: 01d8 df3d 33d7 273e 6a8d 03be b7d9 e73d
000002f0: c232 0dbd 269e 833c a568 09be 471f 17be
00000300: 8c1a e8bd 2495 103e c110 1e3d 13f5 c0bd
00000310: 0b2a d03d 3989 abbd 5491 bfbd e431 3a3d
00000320: 1127 0d3e c117 eebd 7395 45be 3ed3 513d
00000330: d174 663d 5314 a03d 23e5 4d3c 2ec2 893d
00000340: efa6 08bd 4007 163e e9df c9bd 0a06 473e
00000350: 95ae 343a 636f 943d e012 8dbc 51a9 9dbd
00000360: 8564 823c d069 07bc 82fc dfbb 1a9b 2ebe
00000370: 7dd3 8ebd 55b8 ecbd 4de6 20be 3c3e 363d
00000380: 3f75 dabd 66dc 6a3e ac60 493d 6f1a cc3c
00000390: 195d b13d bde6 9e3d 417e 4d3e 60cb f3bc
000003a0: a018 8b3d 815f 853c de09 743c ff09 8abd
000003b0: 3338 0d3e 46d5 36bd cc9f febd db99 223c
000003c0: 6cac 203e a8fd bfbd 0228 cb3a 7865 25bd
000003d0: f32b 803d 2a08 e53d 5948 c9bd 4629 f93d
000003e0: 61de 193e 8b4a 50bd 9435 003e 83c1 b0bd
000003f0: 75f8 6cbd 25af c5bd 066a 08be d56b 3cbe

bias_ih_l0 f4 [128]
-0.06690993 0.14442267 0.09524308 0.15641367 0.069458045 -0.10192004 0.15627581 -0.07723395
0.14232486 0.08525235 0.16543022 0.17659546 0.22341593 0.050724763 -0.065435395 -0.033643223
0.15344657 -0.06823301 0.083188295 0.18541107 -0.08084042 0.08698828 -0.022212973 -0.096785
0.09536682 0.11334764 -0.022145113 -0.052426916 0.0659971 0.21319939 0.01435932 0.15343118
0.020617947 -0.064612396 0.032067843 0.03318329 0.17969917 0.040221702 0.06905908 -0.057952244
0.0729796 0.083501756 0.13503028 0.17270742 0.12888388 0.025562875 -0.00905874 0.0003513119
-0.01901538 -0.070759386 0.12361639 0.07324986 0.031912133 -0.07698071 0.10856522 -0.1451557
-0.15097994 -0.02868802 -0.073452726 -0.025724892 -0.1523603 0.1913795 0.045719948 -0.11096283
0.19871314 0.15132296 0.07831335 0.12945555 0.060794197 0.034327284 0.13279393 0.20598432
0.14616618 0.21828198 -0.06947296 -0.20070882 -0.06419721 0.06297814 0.04532225 0.19553886
-0.049098477 -0.2279731 0.1561162 0.11155418 -0.19751911 -0.21636383 0.060190775 -0.20156004
0.0817943 0.1361357 0.22557972 -0.14976962 -0.11131893 0.027465234 -0.20767444 -0.07802754
-0.04614411 0.12744628 -0.06754346 -0.096866615 0.2417485 -0.066553146 0.1264874 0.055424176
-0.021542594 -0.002105892 -0.05033253 0.061863605 -0.014602129 0.08145362 -0.013686886 0.1406847
0.15755956 0.11181445 0.19384505 0.024096752 0.05634891 0.118124604 -0.118152946 0.035126437
0.22369859 0.19396773 0.20021547 0.16987038 0.2405899 -0.06504219 0.053407628 -0.062224094
00000000: 1308 89bd 89e3 133e ce0e c33d e82a 203e
00000010: 0540 8e3d 74bb d0bd c406 203e d52c 9ebd
00000020: 9cbd 113e c998 ae3d 8a66 293e 71d5 343e
00000030: 25c7 643e c5c4 4f3d fe02 86bd 7acd 09bd
00000040: 1921 1d3e c0bd 8bbd a05e aa3d 66dc 3d3e
00000050: aa8f a5bd e926 b23d fbf7 b5bc 3737 c6bd
00000060: ae4f c33d cf22 e83d ab69 b5bc 9bbd 56bd
00000070: 7d29 873d f150 5a3e 5a43 6b3c 101d 1d3e
00000080: f8e6 a83c 8153 84bd 9259 033d 34eb 073d
00000090: 0f03 383e 83bf 243d d96e 8d3d 555f 6dbd
000000a0: 5476 953d f802 ab3d 6145 0a3e 37da 303e
000000b0: 23fa 033e 3c69 d13c 1c6b 14bc 4930 b839
000000c0: 24c6 9bbc 4cea 90bd 972a fd3d 0604 963d
000000d0: 4cb6 023d 10a8 9dbd 7157 de3d b2a3 14be
000000e0: 7c9a 1abe 2303 ebbc 626e 96bd 02bd d2bc
000000f0: 5704 1cbe fdf8 433e d744 3b3d 7b40 e3bd
00000100: 757b 4b3e 68f4 1a3e c062 a03d ff8f 043e
00000110: 5603 793d c49a 0c3d 22fb 073e 8eed 523e
00000120: 96ac 153e 5085 5f3e d747 8ebd 9d86 4dbe
00000130: d479 83bd affa 803d d3a3 393d 573b 483e
00000140: 7c1b 49bd c871 69be eddc 1f3e 8576 e43d
00000150: 7342 4abe 7b8e 5dbe 9a8a 763d c165 4ebe
00000160: c583 a73d 2867 0b3e 5ffe 663e 355d 19be
00000170: 2efb e3bd c5fe e03c 9ca8 54be e7cc 9fbd
00000180: 9b01 3dbd 4781 023e 3a54 8abd 0162 c6bd
00000190: eb8c 773e 044d 88bd ea85 013e 7604 633d
000001a0: 187a b0bc 0103 0abb 7c29 4ebd b164 7d3d
000001b0: c53d 6fbc 28d1 a63d f63e 60bc a60f 103e
000001c0: 4b57 213e f9fe e43d 517f 463e 8d66 c53c
000001d0: 1dce 663d 50eb f13d 2cfa f1bd bde0 0f3d
000001e0: 3e11 653e 7a9f 463e 4905 4d3e 80f2 2d3e
000001f0: 335d 763e d734 85bd f5c1 5a3d b1de 7ebd

bias_hh_l0 f4 [128]
0.09728874 -0.010376086 0.21680446 -0.11420997 -0.05723698 0.09699566 -0.08562342 -0.04380436
0.08096566 0.22958632 0.25125062 0.18522479 0.05849643 -0.012614352 0.081022464 0.015563363
0.06385711 0.19575551 0.19939236 -0.11047939 -0.07053389 -0.055987205 0.12855013 0.006193536
0.19204162 -0.0010209033 -0.017526643 0.025909578 0.068455756 -0.003926811 0.18141404 0.105647564
0.14130014 0.075380884 0.043589644 0.049510915 0.104180135 0.06456683 -0.11193823 0.06548182
0.041494627 -0.10162965 -0.11795863 -0.12819174 0.010292111 0.12214519 0.19819579 0.077241
-0.044462547 0.1771658 0.18901534 0.09111188 -0.14771411 0.012934754 -0.037504654 0.081812605
-0.11047516 0.13971975 0.1312242 -0.15132783 0.07591746 0.10595282 -0.08846379 0.09319356
-0.013704514 -0.010915059 0.16060692 0.20387676 -0.13341685 0.12567192 -0.11811647 0.09590383
0.1628779 0.06508128 -0.013623692 -0.052278448 0.21751194 0.06674091 0.09382684 0.08426396
0.23063304 -0.24162664 0.06924177 0.023535952 0.02758591 -0.18537298 -0.12384908 -0.06539776
0.21513675 -0.11626919 0.004924117 -0.24115966 -0.22810246 0.03965616 -0.12971854 0.20002393
0.055124257 -0.04900474 0.20255663 0.03453618 0.15670198 0.061525222 -0.1201137 -0.012965905
0.008068569 0.02508414 0.056457758 0.17838186 0.056176797 0.024436193 0.06731104 0.17882292
-0.036477685 0.09360363 0.0025682687 0.1646574 -0.05842956 -0.01996491 0.13392752 0.19284773
-0.10173261 0.065664835 -0.1086959 0.22508796 0.1298962 0.07039273 0.009428367 -0.06026532
00000000: 523f c73d 7600 2abc fd01 5e3e ebe6 e9bd
00000010: 5371 6abd a9a5 c63d 555b afbd 336c 33bd
00000020: 53d1 a53d ad18 6b3e eca3 803e 91ab 3d3e
00000030: f499 6f3d 6dac 4ebc 1bef a53d 7afd 7e3c
00000040: 84c7 823d 2274 483e 832d 4c3e 0543 e2bd
00000050: 1274 90bd d752 65bd a5a2 033e 25f3 ca3b
00000060: 8fa6 443e d5cf 85ba 0994 8fbc 5340 d43c
00000070: 8832 8c3d 7aac 80bb 9ac4 393e c05d d83d
00000080: fcb0 103e 4b61 9a3d 0e8b 323d f5cb 4a3d
00000090: 655c d53d 9d3b 843d df3f e5bd 551b 863d
000000a0: 45f6 293d 3523 d0bd 4b94 f1bd b244 03be
000000b0: 3ea0 283c 4227 fa3d d6f3 4a3e 8830 9e3d
000000c0: 5c1e 36bd f46a 353e 3d8d 413e de98 ba3d
000000d0: 5e42 17be 4aec 533c 7b9e 19bd 5e8d a73d
000000e0: cd40 e2bd b212 0f3e a35f 063e aff5 1abe
000000f0: 9d7a 9b3d cbfd d83d 812c b5bd 44dc be3d
00000100: e688 60bc 13d5 32bc 2476 243e 12c5 503e
00000110: 6d9e 08be 24b0 003e 0ce7 f1bd 3a69 c43d
00000120: 77c9 263e 5649 853d e835 5fbc ed21 56bd
00000130: 73bb 5e3e 75af 883d 4928 c03d 9592 ac3d
00000140: 112b 6c3e f96c 77be a1ce 8d3d 78ce c03c
00000150: d9fb e13c 6ad2 3dbe 96a4 fdbd 43ef 85bd
00000160: cf4c 5c3e 8b1e eebd 7d5a a13b 8ff2 76be
00000170: b193 69be 7f6e 223d f0d4 04be 13d3 4c3e
00000180: f9c9 613d 32b9 48bd 016b 4f3e cf75 0d3d
00000190: 7c76 203e df01 7c3d 2cfe f5bd f26e 54bc
000001a0: 0832 043c 417d cd3c 4040 673d bca9 363e
000001b0: a419 663d 692e c83c 5fda 893d 5b1d 373e
000001c0: a069 15bd 43b3 bf3d 6650 283b f39b 283e
000001d0: d653 6fbd 738d a3bc 4c24 093e e079 453e
000001e0: 3059 d0bd 497b 863d f59b debd 757d 663e
000001f0: 8203 053e 102a 903d 7079 1a3c c5d8 76bd

weight_ih_l0 f4 [256, 32]
0.13319853 0.053321395 0.10536947 0.15966761 -0.039109968 -0.012593473 0.016448138 0.010150324
0.094468795 0.12612629 -0.15117691 -0.12091102 -0.0048456867 0.16495086 0.06801801 -0.008717231
-0.019406913 -0.09257074 0.13390778 -0.046381272 -0.1185837 -0.14584565 -0.15469432 0.06133119
0.04209167 0.1843235 0.121982574 -0.13702522 -0.08505702 0.028791491 -0.13953485 0.014234002
0.14004771 0.012283086 -0.012579314 -0.055057917 -0.1714181 0.108713746 0.16021496 0.12608911
0.04213106 0.1621559 -0.03359699 -0.18590622 0.123601966 0.007933229 0.004298362 0.15712795
0.07711015 0.013609532 -0.04783537 -0.019951215 0.040375162 -0.045202367 0.058076527 -0.011779189
0.19576433 -0.00816094 -0.0028189686 0.0183846 -0.02863094 0.020979587 -0.18661876 0.15354757
0.13825998 0.03196229 0.13692702 -0.05641024 -0.3137692 0.057518136 0.10570406 0.14751083
-0.020193007 0.01822817 -0.21680808 -0.13657723 0.14207208 0.034214526 -0.07990022 0.02841113
-0.016673872 -0.24803478 -0.065170735 0.06862732 -0.03863596 -0.05424443 0.07498462 -0.048108753
0.176094 0.013427714 0.011089634 -0.11325346 -0.14472957 -0.020672405 -0.0741415 0.16487366
0.17690553 0.10516233 -0.036355786 0.12421446 -0.10121221 -0.03246152 -0.035953734 0.13923515
0.081453666 0.056111857 -0.15331459 -0.12498262 0.19552076 0.03713129 -0.007213025 -0.054961484
0.14052427 -0.0060831914 0.011435819 0.10464765 -0.13381107 0.037526928 -0.10262765 -0.123510525
0.029841736 0.033520322 0.13079368 -0.19402966 0.015602715 0.1001169 0.010272044 -0.037537973
0.04302319 0.13761006 0.0058051622 0.08194182 0.074154094 -0.026690844 0.13665448 0.009844386
0.08057105 0.14992538 -0.031841703 0.0340433 0.035723783 0.17125735 -0.10050195 0.15876481
0.15813181 -0.14718774 0.14701381 0.062337138 -0.114377186 -0.04812423 -0.05121243 -0.07776164
0.09327829 0.066505186 0.17413342 -0.014021663 0.040079307 0.003348685 -0.11180991 -0.066627294
0.08182562 0.13960339 0.12194247 0.06930965 -0.16299213 0.0328661 0.06591757 -0.027911875
0.15866087 0.11418607 -0.099639155 -0.10031321 0.1829185 0.13246135 -0.14059985 0.16585751
-0.027747732 -0.015735498 0.01972023 0.07934619 -0.04820216 -0.12405633 -0.126502 -0.0848227
0.10333529 0.16659975 0.040745955 -0.13117914 -0.11189193 -0.07588059 -0.030241786 0.06019495
0.02850073 -0.02580803 0.05769916 -0.023312306 -0.0059162015 -0.025870483 0.1020414 -0.049732897
-0.045118183 0.090480596 -0.0051601017 -0.07715313 0.1464667 -0.06105701 0.032399792 0.061960448
0.10160072 -0.12038536 0.12753603 0.095580675 -0.041970693 0.07446723 -0.041549955 -0.025227351
0.16136211 0.10530904 -0.03377499 0.056641363 -0.13728721 -0.05586846 0.07985063 -0.05824756
0.022514833 0.19886702 0.11132142 0.19081554 -0.17452025 0.19867446 0.08116983 0.1388345
0.1728888 0.09113123 -0.15054958 -0.104798146 0.18140249 0.17722607 -0.09664568 0.1452964
0.15612322 -0.17084707 0.035887793 -0.023703007 -0.10871645 -0.0050204336 -0.13296522 -0.12928075
0.038450476 -0.024022538 -0.015790556 -0.032203197 -0.034979194 0.0075305793 -0.011118818 -0.052925643
00000000: 3265 083e 8967 5a3d f3cb d73d e87f 233e
00000010: c631 20bd db54 4ebc 3fbe 863c 8b4d 263c
00000020: db78 c13d 4027 013e 1fce 1abe 32a0 f7bd
00000030: 91c8 9ebb e1e8 283e 074d 8b3d b8d2 0ebc
00000040: 3ffb 9ebc ba95 bdbd 1f1f 093e 4afa 3dbd
00000050: 03dc f2bd 9058 15be 3068 1ebe 6a36 7b3d
00000060: 5168 2c3d 4dbf 3c3e 00d2 f93d 5750 0cbe
00000070: 6032 aebd 22dc eb3c 39e2 0ebe bb35 693c
00000080: ab68 0f3e ff3e 493c 7819 4ebc 6984 61bd
00000090: 3a88 2fbe 50a5 de3d 640f 243e 811d 013e
000000a0: 9e91 2c3d 320c 263e ff9c 09bd 335e 3ebe
000000b0: 0723 fd3d 60fa 013c 46d9 8c3b 26e6 203e
000000c0: edeb 9d3d 84fa 5e3c 05ef 43bd bb70 a3bc
000000d0: 6d60 253d 1e26 39bd a7e1 6d3d 80fd 40bc
000000e0: 7276 483e 77b5 05bc 72be 38bb 4d9b 963c
000000f0: 6f8b eabc 62dd ab3c fd18 3fbe 933b 1d3e
00000100: 0694 0d3e e4ea 023d 9936 0c3e 6c0e 67bd
00000110: 5ba6 a0be 2398 6b3d 5f7b d83d 140d 173e
00000120: ce6b a5bc 3e53 953c f002 5ebe e7da 0bbe
00000130: 587b 113e 8824 0c3d baa2 a3bd 75be e83c
00000140: a597 88bc d4fc 7dbe 3c78 85bd 7b8c 8c3d
00000150: be40 1ebd 682f 5ebd 8991 993d af0d 45bd
00000160: fc51 343e eaff 5b3c 4cb1 353c 6ef1 e7bd
00000170: fd33 14be 2d59 a9bc 80d7 97bd a4d4 283e
00000180: b926 353e 595f d73d cee9 14bd 2764 fe3d
00000190: 5948 cfbd 5ff6 04bd 3944 13bd a993 0e3e
000001a0: 2ed1 a63d 8cd5 653d 80fe 1cbe e3f6 ffbd
000001b0: 9836 483e fb16 183d 3d5b ecbb 4b1f 61bd
000001c0: 98e5 0f3e 8255 c7bb 4d5d 3b3c 8251 d63d
000001d0: c505 09be d6b5 193d 722e d2bd 16f3 fcbd
000001e0: a876 f43c 9b4c 093d c7ee 053e b6af 46be
000001f0: 88a2 7f3c 170a cd3d 134c 283c 6bc1 19bd
00000200: 1639 303d a7e9 0c3e 3b39 be3b 1dd1 a73d
00000210: 1ade 973d c2a6 dabc 27ef 0b3e 594a 213c
00000220: 6f02 a53d 0a86 193e 726c 02bd fd70 0b3d
00000230: 1a53 123d 165e 2f3e f7d3 cdbd 3e93 223e
00000240: 4eed 213e 62b8 16be ca8a 163e 3a55 7f3d
00000250: 963e eabd ea1d 45bd 20c4 51bd 7f41 9fbd
00000260: b008 bf3d df33 883d 0850 323e 1ebb 65bc
00000270: 332a 243d 9d75 5b3b 98fc e4bd e473 88bd
00000280: 3194 a73d 31f4 0e3e f9bc f93d 38f2 8d3d
00000290: 69e7 26be 9b9e 063d caff 863d 72a7 e4bc
000002a0: ff77 223e 63da e93d 9d0f ccbd 0371 cdbd
000002b0: fd4e 3b3e f3a3 073e 68f9 0fbe 8dd6 293e
000002c0: 364f e3bc bbe7 80bc 528c a13c 4180 a23d
000002d0: a16f 45bd 3f11 febd be89 01be 86b7 adbd
000002e0: 74a1 d33d 2099 2a3e 3be5 263d d353 06be
000002f0: 9927 e5bd 4867 9bbd 9fbd f7bc fb8e 763d
00000300: 5d7a e93c 5d6b d3bc f455 6c3d 73f9 bebc
00000310: b2dc c1bb 56ee d3bc 15fb d03d b9b4 4bbd
00000320: d8cd 38bd e44d b93d 1216 a9bb 7602 9ebd
00000330: 5efb 153e ea16 7abd a5b5 043d 3dca 7d3d
00000340: 0a14 d03d 9a8c f6bd ce98 023e cdbf c33d
00000350: 76e9 2bbd 4682 983d 4930 2abd 97a9 cebc
00000360: 1c3c 253e 44ac d73d a557 0abd c600 683d
00000370: 0595 0cbe 54d6 64bd ba88 a33d fe94 6ebd
00000380: 0771 b83c cca3 4b3e 7cfc e33d 2665 433e
00000390: 70b5 32be 5171 4b3e 5e3c a63d a22a 0e3e
000003a0: c309 313e 03a3 ba3d ab29 1abe 69a0 d6bd
000003b0: 93c1 393e c07a 353e 2cee c5bd 94c8 143e
000003c0: c4de 1f3e 89f2 2ebe 14ff 123d cf2c c2bc
000003d0: bba6 debd 7382 a4bb 0928 08be 2c62 04be
000003e0: 3f7e 1d3d eaca c4bc 325b 81bc 80e7 03bd
000003f0: 5846 0fbd 14c3 f63b b42b 36bc 8fc8 58bd

weight_hh_l0 f4 [256, 64]
-0.038204305 0.02767619 0.001508162 0.00902711 0.038787127 0.013991319 0.06925295 0.026364895
-0.09222558 -0.06334525 0.08788458 -0.083046004 0.010641474 0.06165666 0.09576611 0.12181562
5.566344e-05 -0.10181808 0.01731129 0.051616963 -0.0045149378 0.060437676 0.06562893 0.018608192
-0.0026700357 -0.09745296 -0.070663124 -0.01696836 0.1013909 0.115807615 0.034647007 0.10610214
-0.08017493 0.11497407 -0.05097253 0.11763427 0.1145371 0.004209341 0.069980405 0.07997216
-0.042933952 0.072748676 -0.035036456 0.116941705 0.06959652 0.01844719 0.056999266 -0.07725948
0.020717397 0.080428585 -0.110123664 -0.096511 0.0027054502 -0.050316554 0.08723567 0.04176184
0.029031776 0.09130056 -0.018375723 0.119885124 -0.091396704 0.050517205 0.019972984 0.09032721
-0.14472216 0.02200637 -0.07013708 0.06757452 0.11152647 0.02109546 -0.08773681 -0.05430527
-0.14506318 -0.16334927 -0.05987735 -0.03008421 0.025275812 -0.073272 -0.08455014 -0.061921418
-0.050626744 0.052128557 -0.075016804 0.034759507 0.06633768 -0.045398764 0.047249824 -0.031336136
-0.09995474 0.055628218 -0.115807064 -0.016087849 -0.03661344 -0.08637711 0.12242837 0.08689071
0.047842667 -0.029606793 0.066411026 0.059847213 -0.12647547 0.0031519257 -0.122306734 0.010306433
0.07200759 0.054225378 -0.012459463 -0.05001896 0.006899114 0.014329818 -0.060342994 -0.11467154
0.13009119 0.14775704 0.004667892 -0.030657144 0.081484936 0.07002567 0.065987974 -0.007340662
0.07293675 0.056001905 -0.0025016626 0.07734849 0.054052696 -0.03899675 -0.13633572 -0.115987465
-0.009806189 0.21617685 -0.0071360543 0.010337748 0.025357593 -0.06088651 -0.16228917 -0.040570877
-0.14617132 -0.15351492 -0.2512241 0.034867954 0.0857702 -0.013715148 -0.09334497 0.08708111
0.09668493 0.0925405 -0.12044519 -0.16214499 0.17114754 0.01703783 -0.17656043 0.19027483
-0.028962735 0.2488305 -0.19552533 -0.09097798 0.07165632 0.18138468 0.09747401 -0.14619522
-0.11367445 0.002134598 0.124073885 0.22473265 -0.08557218 0.21908954 -0.00016301124 -0.050088923
0.19373044 -0.09580998 -0.07120574 0.21029018 0.13612778 0.08439674 -0.06943504 -0.18286523
0.18294698 0.22272563 -0.17755482 0.04770396 -0.13075721 -0.081858866 0.038211487 -0.2558156
-0.13567777 -0.046807725 0.04828964 -0.25303647 -0.048616547 -0.12276253 -0.10056868 0.0049099224
-0.07416097 0.06498233 -0.0028277102 0.106279425 0.02909409 -0.13682982 0.07833268 -0.081175946
0.009676802 0.039745167 -0.026381865 0.105228454 0.02548655 -0.01583822 0.008627898 0.10789857
0.12141031 0.06479348 0.069236614 -0.05994958 0.14204772 0.11026189 -0.054411825 0.11458136
0.026474828 0.036503404 -0.0011550989 -0.1179341 0.1533165 0.1468096 0.11863066 0.028476773
-0.12990624 -0.044915598 0.01267653 -0.04503149 0.08487746 0.08079576 -0.12755945 -0.13974294
0.110557355 -0.029028961 -0.15050724 -0.053217288 -0.028868996 0.08995351 0.076495185 -0.19153672
0.013037116 0.14431559 0.0316593 0.0065741604 0.10104765 -0.074249774 0.010465283 -0.15775283
-0.040147714 0.025183015 0.052502126 -0.019664716 -0.02614664 0.041230183 -0.14958166 -0.07927161
00000000: 1e7c 1cbd 2db9 e23c 85ad c53a 72e6 133c
00000010: 40df 1e3d d83b 653c 7ed4 8d3d 31fb d73c
00000020: c4e0 bcbd 28bb 81bd d5fc b33d 0614 aabd
00000030: 9459 2e3c b28b 7c3d 0621 c43d 787a f93d
00000040: 2a78 6938 ff85 d0bd 68d0 8d3c 4f6c 533d
00000050: 0bf2 93bb 7f8d 773d 7668 863d 3570 983c
00000060: c4fb 2ebb 6b95 c7bd d4b7 90bd 3b01 8bbc
00000070: 08a6 cf3d 8b2c ed3d 05ea 0d3d 144c d93d
00000080: c132 a4bd 8677 eb3d 92c8 50bd 3cea f03d
00000090: 6d92 ea3d 83ee 893b e351 8f3d 72c8 a33d
000000a0: 83db 2fbd 42fd 943d 6382 0fbd 227f ef3d
000000b0: 9f88 8e3d 901e 973c 1078 693d 383a 9ebd
000000c0: 88b7 a93c beb7 a43d 8488 e1bd 8fa7 c5bd
000000d0: ec4d 313b bb18 4ebd 9da8 b23d 770e 2b3d
000000e0: 0cd4 ed3c cafb ba3d af88 96bc 5586 f53d
000000f0: 322e bbbd 21eb 4e3d 629e a33c 79fd b83d
00000100: 0c32 14be b446 b43c 08a4 8fbd 8364 8a3d
00000110: fd67 e43d 63d0 ac3c 5baf b3bd 346f 5ebd
00000120: 718b 14be 0845 27be f441 75bd 2973 f6bc
00000130: 380f cf3c a10f 96bd a028 adbd 50a1 7dbd
00000140: fd5d 4fbd c184 553d 69a2 99bd fc5f 0e3d
00000150: 0ddc 873d 0ef4 39bd 0889 413d 525a 00bd
00000160: 12b5 ccbd 6ada 633d 412c edbd aaca 83bc
00000170: f9f7 15bd 7be6 b0bd babb fa3d c2f3 b13d
00000180: acf6 433d f289 f2bc 8102 883d 5a22 753d
00000190: c982 01be 8a90 4e3b f47b fabd 50dc 283c
000001a0: b778 933d 6e1b 5e3d c722 4cbc aee0 4cbd
000001b0: f711 e23b 9dc7 6a3c 372a 77bd ead8 eabd
000001c0: a036 053e 9f4d 173e 1ef5 983b b124 fbbc
000001d0: 93e1 a63d 9e69 8f3d b424 873d f089 f0bb
000001e0: dd5f 953d 4162 653d eff2 23bb e368 9e3d
000001f0: 5c66 5d3d 0ebb 1fbd 979b 0bbe d68a edbd
00000200: 23aa 20bc 775d 5d3e 90d5 e9bb a85f 293c
00000210: baba cf3c 2264 79bd 222f 26be a62d 26bd
00000220: efad 15be 0433 1dbe 72a0 80be b3d1 0e3d
00000230: 49a8 af3d 80b5 60bc a62b bfbd 9557 b23d
00000240: c002 c63d e085 bd3d f8ab f6bd 5609 26be
00000250: 4d41 2f3e eb92 8b3c 42cc 34be 68d7 423e
00000260: 4243 edbc 6ccd 7e3e cb37 48be aa52 babd
00000270: 8cc0 923d e8bc 393e 74a0 c73d 33b4 15be
00000280: 26ce e8bd 9de4 0b3b 731a fe3d 5120 663e
00000290: 7840 afbd 0259 603e ffed 2ab9 0b2a 4dbd
000002a0: 4661 463e 0638 c4bd 51d4 91bd 4f56 573e
000002b0: 1565 0b3e 33d8 ac3d f533 8ebd 0641 3bbe
000002c0: 7456 3b3e 3012 643e eed0 35be 3a65 433d
000002d0: 38e5 05be 9fa5 a7bd a683 1c3d 43fa 82be
000002e0: 1def 0abe 75b9 3fbd 5ccb 453d ff8d 81be
000002f0: 2522 47bd ec6a fbbd f4f6 cdbd 6ae3 a03b
00000300: b5e1 97bd 7515 853d 1b51 39bb 07a9 d93d
00000310: bb56 ee3c 1e1d 0cbe e26c a03d 933f a6bd
00000320: 738b 1e3c d4cb 223d c81e d8bc 0482 d73d
00000330: 2bc9 d03c 28bf 81bc 075c 0d3c edf9 dc3d
00000340: f8a5 f83d 72b2 843d edcb 8d3d b18d 75bd
00000350: f574 113e fcd0 e13d efde 5ebd a2a9 ea3d
00000360: bde1 d83c 9884 153d b066 97ba 6f87 f1bd
00000370: 00ff 1c3e 4155 163e a2f4 f23d 1f48 e93c
00000380: 2406 05be 6bf9 37bd 38b1 4f3c f172 38bd
00000390: 3cd4 ad3d 3f78 a53d f29e 02be c618 0fbe
000003a0: e56b e23d 25ce edbc 921e 1abe 5ffa 59bd
000003b0: ac7e ecbc 8c39 b83d 82a9 9c3d 3422 44be
000003c0: a199 553c 77c7 133e 2fad 013d 0e6c d73b
000003d0: 12f2 ce3d 4410 98bd 9476 2b3c f589 21be
000003e0: ee71 24bd 9c4c ce3c 780c 573d e617 a1bc
000003f0: 7a31 d6bc fbe0 283d ef2b 19be 2759 a2bd

bias_ih_l0 f4 [256]
0.01806123 -0.031061323 0.19764304 0.02805462 0.14760493 -0.008724019 0.0015306157 -0.04563601
0.09895535 0.07183126 0.1913078 -0.017078782 0.22338954 0.1727935 0.14749388 0.033701874
0.13767894 0.006436919 0.12797444 0.042248495 0.009000192 0.20222154 0.11979454 0.06727206
-0.06797289 0.008177029 -0.077552825 -0.008977343 0.07089398 0.21416399 0.08520113 0.15099585
0.15157318 -0.05247109 0.08474585 0.033787165 0.026021665 0.12643668 0.12991408 0.1472411
0.014143306 0.069857344 0.105879 0.13885748 0.15552679 -0.049292848 0.091261484 -0.03438229
0.084525324 -0.07087926 -0.005406374 -0.042466663 0.18007405 -0.04135241 0.18129504 0.038937878
0.0061715916 0.09944279 0.13204071 0.089682765 0.15882917 -0.040458836 0.21969903 0.05589913
0.09988711 -0.004732831 0.101806164 -0.06132776 0.11078278 0.10747278 -0.06918802 0.1277714
0.015431702 -0.04026465 0.06804505 0.06777267 -0.056514174 -0.032543086 -0.09634199 -0.023352815
0.10371387 -0.10991695 -0.12702978 0.09029213 -0.06771234 0.14010653 -0.08343851 0.08219841
-0.051021732 0.11413312 -0.07090749 -0.009245518 0.18549381 0.11174401 -0.02098157 -0.037103146
-0.045160417 0.07595459 -0.04536953 0.07924357 0.017854672 0.065204024 0.12394989 0.106520936
-0.028733447 0.020992206 0.09654905 0.116068974 -0.04558839 0.045429103 -0.11170985 -0.09610105
0.11985555 -0.062941924 -0.0726333 0.11675739 0.04653368 0.02213425 -0.0035829996 -0.061553717
0.0613994 -0.084265925 -0.08983921 -0.018135665 -0.06613876 -0.038226258 -0.005984819 0.15684836
0.019253999 0.064350806 -0.106381975 0.12772772 0.09599232 0.028952517 -0.13532382 -0.06565166
-0.12639019 -0.13465676 -0.19177684 0.054891262 0.094024725 -0.1898185 -0.10768843 0.13647737
0.16233201 0.17688203 0.0017428594 -0.12278294 0.084990494 0.10556331 -0.11814102 0.141083
0.04353792 -0.011739246 -0.03947624 -0.027921662 0.15886882 0.10544889 0.110642724 -0.16532707
-0.2078325 0.1238853 0.16792707 0.12908474 0.053374458 0.10548563 -0.11662527 -0.1260575
0.19896129 -0.15549874 -0.14865178 0.036873113 0.11224149 0.07353566 -0.08365923 -0.014597899
0.1334926 0.058573976 -0.082960576 0.14705247 -0.005196883 -0.06512427 0.054656453 -0.03003882
-0.1317351 -0.06304957 0.12578514 -0.1333942 -0.06040625 -0.1064928 -0.13218506 0.013716287
0.1283509 0.0619638 -0.021596478 0.16069186 0.16541381 0.038865913 0.011249469 0.05825355
0.114059374 -0.058173347 0.17884856 0.104518175 -0.04067074 0.0066967234 0.13296261 0.19456394
-0.049205426 0.02054136 0.018563984 -0.04213785 -0.019815428 0.20668834 0.1131239 -0.025105607
0.020659106 0.014942797 -0.032185245 0.16880126 0.075691275 0.10237655 -0.0848158 0.07745966
0.07005143 0.16070138 0.11995562 0.0049897865 -0.040259667 -0.025339724 0.058397084 0.0744539
0.1619576 0.15529376 0.19574627 0.007895292 0.011682792 0.03451875 0.10979139 0.1856703
0.012173801 -0.044849575 0.12140272 -0.053184353 0.16207245 0.032957997 0.1830999 0.16076048
0.041684914 -0.03758307 0.13364884 0.19736114 0.14775571 0.054035403 0.09758189 -0.058028236
00000000: 25f5 933c 5174 febc f062 4a3e cdd2 e53c
00000010: bf25 173e 30ef 0ebc f19e c83a d3ec 3abd
00000020: 1aa9 ca3d 451c 933d 31e6 433e cde8 8bbc
00000030: 3ac0 643e c7f0 303e a308 173e fa0a 0a3d
00000040: b5fb 0c3e caec d23b bb0b 033e c20c 2d3d
00000050: 8b75 133c 2a13 4f3e d756 f53d efc5 893d
00000060: 5f35 8bbd f2f8 053c 04d4 9ebd b515 13bc
00000070: dd30 913d ce4d 5b3e ee7d ae3d a89e 1a3e
00000080: 0036 1b3e edeb 56bd 3b8f ad3d 6964 0a3d
00000090: 632b d53c 9e78 013e 3208 053e 5fc6 163e
000000a0: 53b9 673c 5e11 8f3d 17d7 d83d a830 0e3e
000000b0: 6a42 1f3e 4ce7 49bd 4de7 ba3d 72d4 0cbd
000000c0: 9d1b ad3d 2529 91bd f427 b1bb 86f1 2dbd
000000d0: 5565 383e 2561 29bd 68a5 393e 537d 1f3d
000000e0: 103b ca3b a9a8 cb3d ae35 073e 99ab b73d
000000f0: 1da4 223e 2ab8 25bd c8f8 603e 7cf6 643d
00000100: 9d91 cc3d dd15 9bbb c07f d03d d132 7bbd
00000110: 15e2 e23d b01a dc3d 73b2 8dbd 82d6 023e
00000120: 40d5 7c3c 8cec 24bd 345b 8b3d 66cc 8a3d
00000130: 687b 67bd e64b 05bd f34e c5bd 674e bfbc
00000140: f067 d43d 231c e1bd 1814 02be 15eb b83d
00000150: c4ac 8abd 1678 0f3e cfe1 aabd a457 a83d
00000160: 2afc 50bd a0be e93d f237 91bd 837a 17bc
00000170: 17f2 3d3e 0bda e43d 8be1 abbc 78f9 17bd
00000180: 21fa 38bd 158e 9b3d 66d5 39bd 744a a23d
00000190: f643 923c b089 853d 71d9 fd3d a627 da3d
000001a0: 6862 ebbc d9f7 ab3c 82bb c53d 92b5 ed3d
000001b0: e4ba 3abd de13 3a3d 22c8 e4bd a1d0 c4bd
000001c0: d476 f53d b2e7 80bd c5c0 94bd 801e ef3d
000001d0: 1a9a 3e3d e352 b53c c2d0 6abb c01f 7cbd
000001e0: f07d 7b3d 9d93 acbd 9ffd b7bd 3f91 94bc
000001f0: c273 87bd 2393 1cbd 4d1c c4bb db9c 203e
00000200: 90ba 9d3c 5bca 833d cbde d9bd 0ecb 023e
00000210: 9f97 c43d d42d ed3c 5492 0abe 6174 86bd
00000220: 6e6c 01be 76e3 09be 2661 44be a9d5 603d
00000230: 0990 c03d c85f 42be c08b dcbd b9c0 0b3e
00000240: 5d3a 263e 9020 353e a870 e43a 9f75 fbbd
00000250: 7f0f ae3d 9431 d83d ebf3 f1bd 1078 103e
00000260: d154 323d f755 40bc d6b1 21bd f8bb e4bc
00000270: 82ae 223e 96f5 d73d a798 e23d 804b 29be
00000280: 0bd2 54be 93b7 fd3d 13f5 2b3e ca2e 043e
00000290: 2d9f 5a3d da08 d83d 3bd9 eebd 3815 01be
000002a0: 82bc 4b3e 103b 1fbe 2c38 18be 4308 173d
000002b0: dede e53d dd99 963d 8855 abbd 072c 6fbc
000002c0: 49b2 083e 44eb 6f3d 3ce7 a9bd ec94 163e
000002d0: 9d4a aabb e05f 85bd 72df 5f3d f913 f6bc
000002e0: 91e5 06be 2220 81bd d2cd 003e 7d98 08be
000002f0: 8b6c 77bd e618 dabd 855b 07be 47ba 603c
00000300: 6b6e 033e c1cd 7d3d 19eb b0bc 688c 243e
00000310: 3d62 293e dd31 1f3d b14f 383c 469b 6e3d
00000320: f697 e93d 2d47 6ebd 1424 373e a00d d63d
00000330: 5d96 26bd 3070 db3b 5a27 083e c53b 473e
00000340: a18b 49bd 5b46 a83c 7f13 983c bd98 2cbd
00000350: f753 a2bc 1ca6 533e 81ad e73d 46aa cdbc
00000360: 493d a93c a2d2 743c add4 03bd 3dda 2c3e
00000370: 0704 9b3d ccaa d13d e8b3 adbd 2ca3 9e3d
00000380: 2077 8f3d e78e 243e 4bab f53d 5d81 a33b
00000390: 52e7 24bd 4195 cfbc c831 6f3d 497b 983d
000003a0: 37d8 253e 5405 1f3e b671 483e 415b 013c
000003b0: 2e69 3f3c 8863 0d3d 4fda e03d 5b20 3e3e
000003c0: 9f74 473c 30b4 37bd fda1 f83d d6d7 59bd
000003d0: 52f6 253e f7fe 063d 8a7e 3b3e 659e 243e
000003e0: cdbd 2a3d b5f0 19bd 3edb 083e 0a19 4a3e
000003f0: 464d 173e 3a54 5d3d 04d9 c73d 04af 6dbd

bias_hh_l0 f4 [256]
0.049170244 0.1696217 0.09608526 -0.026400283 0.16636615 0.010257582 0.07869384 -0.03642187
-0.07254712 0.044497546 0.07562003 -0.025531879 0.11918931 0.18930434 0.019949272 0.020407017
-0.046865217 0.17944296 0.1410124 0.054058265 -0.049824636 0.085635275 0.13053441 -0.059149843
-0.015994832 0.024524607 0.114240766 0.06450589 0.21677826 0.050315626 -0.048789486 0.10275735
0.15480615 0.14434136 0.14104895 0.13447 0.025460701 0.09081074 0.06466787 0.0016959443
0.1845545 0.024457749 0.043457348 0.068488725 -0.034572925 0.119188994 0.07343031 -0.011432727
0.18486007 0.023812387 0.16692331 0.01186619 0.006783359 0.09176264 0.13544528 0.15820995
0.17942312 0.1955691 0.11404146 0.16405706 0.055341393 -0.007176333 0.05425098 0.1098508
0.1275808 0.054208536 0.15649904 0.11445992 -0.017876163 0.096913084 -0.044092547 0.0651817
0.060079623 -0.013852732 0.044543125 -0.055751167 0.12149448 0.09999269 0.00080149353 0.14324927
0.065300435 0.09777238 -0.108485654 0.057398 0.032968123 0.11616348 -0.056819133 -0.005076132
0.12467002 -0.0035938912 -0.10678944 0.09570611 -0.02684036 0.17814402 0.13153782 -0.07335076
-0.064639844 -0.025045544 0.05263781 0.093658015 -0.047233686 -0.09527148 0.02000356 0.010768256
0.015164255 -0.012853658 -0.05809262 -0.0466047 0.01581317 -0.04869818 -0.11525425 0.04250516
0.13327776 -0.0008799797 0.04812765 0.062109064 -0.028422195 0.030445602 -0.08615498 0.1806607
0.0006533786 -0.022012869 -0.033803176 0.04898492 -0.03952807 -0.030485673 -0.0012940818 0.15377639
-0.03373575 0.18433738 -0.15696031 0.070239365 0.12074739 -0.16852437 -0.026877092 -0.1197176
-0.12898433 0.050516713 -0.05672811 0.110005386 0.1683394 -0.082739994 -0.107639074 0.15117572
0.09964227 -0.012277569 0.03035699 0.02044259 0.08356355 0.11090426 -0.117730804 0.15649307
-0.17710352 0.18417446 0.03474012 -0.21030313 0.17508914 0.06186687 0.049999163 -0.072400816
-0.14965568 0.07708218 0.11883835 0.1437791 -0.1632074 0.13856865 -0.13410486 -0.092396736
0.16180584 -0.08365667 0.021662952 0.16889773 0.12525347 0.0788484 -0.13361268 -0.08880241
0.02669455 0.059819497 0.003710757 0.09390626 -0.109995626 -0.12554531 0.035031736 -0.1941665
-0.101652205 -0.005120757 0.1443775 -0.11320831 -0.19547343 0.05866498 -0.057467997 -0.22738555
0.061450716 0.16378553 0.10681466 -0.026513621 0.09218119 0.17325087 -0.07986245 0.010368837
0.10851394 -0.05669728 0.047291134 0.19807163 0.1292545 0.053023178 0.041134458 0.1799672
0.17000987 0.110528514 0.030990485 -0.0016799509 0.14547291 0.19766027 0.17283899 0.1058571
-0.02292197 0.08577669 0.0035665517 0.15027872 -0.060481075 0.08289578 -0.086740986 0.041415248
0.12800354 0.13229689 0.07978667 -0.02337418 0.062318057 0.05106542 -0.0148551 0.13993879
0.14542921 0.18650992 0.17710294 0.028353382 0.0047803386 0.06435599 0.0019171048 0.009389044
-0.060532007 0.098003745 0.12880123 -0.021046365 -0.022055091 0.16224058 0.08400507 0.14416146
-0.06778139 0.05470879 0.10811287 0.038076203 0.002219882 0.0667689 0.13000725 0.029286848
00000000: bd66 493d 50b1 2d3e 59c8 c43d 6845 d8bc
00000010: e35b 2a3e 6b0f 283c 3c2a a13d 192f 15bd
00000020: 9693 94bd 0f43 363d adde 9a3d 3b28 d1bc
00000030: 8619 f43d ffd8 413e a86c a33c 9e2c a73c
00000040: bef5 3fbd e5bf 373e 8e65 103e 336c 5d3d
00000050: eb14 4cbd 8c61 af3d d0aa 053e 1b47 72bd
00000060: 9807 83bc d4e7 c83c 10f7 e93d aa1b 843d
00000070: 1ffb 5d3e c217 4e3d 7cd7 47bd 7272 d23d
00000080: 8185 1e3e 39ce 133e 236f 103e 81b2 093e
00000090: f692 d03c fbfa b93d 9770 843d 734a de3a
000000a0: dbfb 3c3e 9e5b c83c 5500 323d d143 8c3d
000000b0: 579c 0dbd 5c19 f43d a162 963d 5550 3bbc
000000c0: f54b 3d3e 3212 c33c f2ed 2a3e 686a 423c
000000d0: f146 de3b 0dee bb3d 2bb2 0a3e ca01 223e
000000e0: b2ba 373e 4443 483e 928e e93d 93fe 273e
000000f0: a8ad 623d 7227 ebbb 4736 5e3d 75f9 e03d
00000100: 8ba4 023e c509 5e3d 4941 203e f669 ea3d
00000110: 0871 92bc 5e7a c63d 639a 34bd fc7d 853d
00000120: 0d16 763d 92f6 62bc da72 363d 565b 64bd
00000130: 19d2 f83d f8c8 cc3d 521b 523a f0af 123e
00000140: 3cbc 853d e33c c83d ba2d debd 2a1a 6b3d
00000150: 9509 073d 1ee7 ed3d 2ebb 68bd ae55 a6bb
00000160: ff52 ff3d 7d87 6bbb 6cb4 dabd 9101 c43d
00000170: 51e0 dbbc 636b 363e dab1 063e ec38 96bd
00000180: e561 84bd 502c cdbc bf9a 573d c6cf bf3d
00000190: 1c78 41bd b21d c3bd 82de a33c 576d 303c
000001a0: 7f73 783c 2698 52bc 87f2 6dbd 92e4 3ebd
000001b0: 9f8a 813c be77 47bd 6c0a ecbd e419 2e3d
000001c0: f779 083e 70ae 66ba 8021 453d 1366 7e3d
000001d0: aad5 e8bc 0e69 f93c 0672 b0bd 1eff 383e
000001e0: 7f47 2b3a 5554 b4bc 3375 0abd 69a4 483d
000001f0: 2fe8 21bd 17bd f9bc 2e9e a9ba 8f77 1d3e
00000200: 7f2e 0abd f0c2 3c3e 34ba 20be a8d9 8f3d
00000210: 684a f73d a791 2cbe 592d dcbc 802e f5bd
00000220: 7814 04be 9dea 4e3d bc5b 68bd 814a e13d
00000230: 2a61 2c3e 9673 a9bd e071 dcbd cfcd 1a3e
00000240: 3f11 cc3d db27 49bc 39af f83c 3877 a73c
00000250: 5e23 ab3d c621 e33d d91c f1bd b83f 203e
00000260: a05a 35be 3b98 3c3e a84b 0e3d b459 57be
00000270: 914a 333e 1d68 7d3d eccb 4c3d e146 94bd
00000280: 573f 19be 43dd 9d3d 8561 f33d d43a 133e
00000290: d71f 27be f1e4 0d3e c952 09be 803a bdbd
000002a0: 6eb0 253e 3054 abbd 8176 b13c 87f3 2c3e
000002b0: 7242 003e 457b a13d c3d1 08be 0ade b5bd
000002c0: 87ae da3c 4a05 753d 2c30 733b ed51 c03d
000002d0: 6345 e1bd f38e 00be 707d 0f3d 95d3 46be
000002e0: 082f d0bd 06cc a7bb b2d7 133e c2d9 e7bd
000002f0: 302a 48be b14a 703d 9063 6bbd c2d7 68be
00000300: bfb3 7b3d 65b7 273e a5c1 da3d 1833 d9bc
00000310: 7ec9 bc3d ad68 313e ed8e a3bd 0ee2 293c
00000320: 8e3c de3d 683b 68bd 59b4 413d 4ad3 4a3e
00000330: 4b5b 043e d52e 593d 9b7c 283d 5249 383e
00000340: 1117 2e3e c65c e23d c2df fd3c cc31 dcba
00000350: daf6 143e 7467 4a3e b4fc 303e 9bcb d83d
00000360: dbc6 bbbc b0ab af3d cfbc 693b aae2 193e
00000370: 01bb 77bd 43c5 a93d 42a5 b1bd 09a3 293d
00000380: 5c13 033e d678 073e 3267 a33d 357b bfbc
00000390: 3841 7f3d f929 513d ce62 73bc 1d4c 0f3e
000003a0: 65eb 143e 75fc 3e3e 795a 353e 5a45 e83c
000003b0: 63a4 9c3b 13cd 833d 5d47 fb3a 81d4 193c
000003c0: 69f0 77bd 30b6 c83d 78e4 033e 6d69 acbc
000003d0: e1ac b4bc 6522 263e da0a ac3d 109f 133e
000003e0: f8d0 8abd 5316 603d 486a dd3d cbf5 1b3d
000003f0: 717b 113b 22be 883d 9f20 053e f9ea ef3c

weight_ih_l0 f4 [512, 64]
-0.041928973 -0.013511694 -0.033876657 -0.015258538 0.084404096 -0.08390559 -0.03144473 -0.1232089
0.010048771 -0.08876177 -0.030790636 0.08817753 0.10269374 0.024383701 -0.12523098 -0.04232889
0.009877445 0.12159678 -0.1047938 -0.049300965 -0.013741872 0.10957585 -0.020799426 0.11496287
-0.10683536 0.026315192 -0.08258535 -0.12065397 0.01518577 0.050198033 0.026329938 0.02198652
0.045776572 0.03690264 -0.04300539 0.028034894 0.045799933 0.12144029 -0.055520963 -0.021829136
0.07185396 -0.120755434 -0.05492836 0.012645189 0.03560569 0.0041312026 -0.076426074 -0.13229866
0.023946391 0.10992942 -0.054951537 0.005836248 0.028906772 -0.072397105 0.12652045 0.027692685
-0.014370786 -0.0633656 0.040390633 -0.05084293 0.0012516753 -0.10610872 0.03935738 0.045242023
-0.014050167 0.034441378 -0.07973711 0.041013077 0.036389373 -0.037042517 -0.077452056 -0.013895358
0.042053215 0.00053638 -0.085237585 0.040179867 0.12812392 -0.11355416 -0.058772568 -0.011006702
0.022837467 -0.012274103 -0.01334084 -0.012803918 0.039464597 0.08052788 -0.076353215 0.059370283
0.01046125 0.08523158 -0.077029295 -0.035243914 0.0502971 0.021433976 0.00029611288 -0.0847793
-0.13310826 0.106641054 0.104228266 0.06286129 -0.041318353 -0.018654266 -0.111974545 -0.06023093
0.084841564 -0.060196582 0.0035481805 0.10222035 0.0030259022 0.05356002 -0.05970473 0.095490105
0.052290265 0.12615111 -0.03459013 -0.0019500322 -0.061904747 0.010703498 0.022134516 -0.0412268
-0.027999133 -0.029342813 -0.066357814 -0.06930757 -0.1321543 -0.11811593 -0.14067346 -0.06546257
-0.08981112 0.099677585 -0.09632414 0.06781147 -0.0061831353 -0.045083858 -0.030033605 -0.10243678
-0.0021243133 -0.13479011 -0.01740711 0.055814296 0.033529703 -0.09713648 -0.049172223 0.1513658
0.085960716 0.0051182993 -0.0107215 -0.054353718 0.14673942 0.0965186 -0.07914658 0.03859872
-0.15528452 0.026517138 -0.007375847 0.0051761814 0.14508784 0.04258725 0.05711289 -0.089066386
-0.053569295 0.07312435 -0.005425959 0.07463223 -0.017207453 0.042394187 0.023374574 -0.06842969
0.04126873 4.6389207e-05 -0.052323073 0.041309144 0.057945367 0.12583685 0.008507298 -0.06569826
0.12209302 0.14777309 -0.041885037 0.046126034 -0.10922593 -0.11533531 0.035447493 -0.1419719
-0.06872222 0.0022506427 0.07207259 0.029691182 -0.001992705 -0.143781 -0.13191728 -0.11141411
-0.026158927 -0.010864948 -0.07000502 0.016594347 -0.013641696 0.012556088 -0.14534792 -0.13075534
-0.146854 -0.13506617 -0.008854584 0.09334681 -0.03244622 0.013042138 0.009203721 0.019742576
0.012136017 0.116706416 0.0029344999 -0.068119526 0.10333934 0.02434046 -0.07718867 0.0033944491
-0.1426093 0.0861173 -0.045165572 -0.12957181 0.014607387 0.11689042 0.05760233 -0.049351066
-0.12159259 -0.01732066 0.005455939 -0.0018242747 -0.083870396 0.14989614 -0.12565118 -0.0387328
0.13462678 -0.02572002 -0.1358316 -0.0009407766 0.1066918 0.12877835 -0.09776539 -0.08193909
0.072477065 0.060201854 0.013424742 0.017947901 -0.028986376 -0.005433366 0.075065784 -0.0818035
-0.089829326 -0.10014709 0.016235452 -0.008171981 -0.033418246 -0.08420868 -0.13092129 -0.08925959
00000000: b7bd 2bbd 2760 5dbc 40c2 0abd f2fe 79bc
00000010: 0edc ac3d b2d6 abbd 30cc 00bd f354 fcbd
00000020: 9aa3 243c bbc8 b5bd a53c fcbc 6c96 b43d
00000030: 1851 d23d 54c0 c73c 8d3c 00be 0f61 2dbd
00000040: 02d5 213c bc07 f93d 229e d6bd cfef 49bd
00000050: 9725 61bc 4e69 e03d 8f63 aabc a771 eb3d
00000060: 7fcc dabd f592 d73c 8222 a9bd 6e19 f7bd
00000070: bccd 783c 749c 4d3d e2b1 d73c 131d b43c
00000080: 3780 3b3d 3927 173d 6b26 30bd 6fa9 e53c
00000090: b698 3b3d b0b5 f83d f369 63bd 04d3 b2bc
000000a0: 2b28 933d a04e f7bd 8ffc 60bd c42d 4f3c
000000b0: 46d7 113d 0a5f 873b 4685 9cbd 4d79 07be
000000c0: 392b c43c ad22 e13d dd14 61bd ff3d bf3b
000000d0: e5cd ec3c ef44 94bd 948e 013e c5db e23c
000000e0: 7273 6bbc d3c5 81bd a670 253d ad40 50bd
000000f0: 410f a43a 874f d9bd 3435 213d b34f 393d
00000100: ac32 66bc 6712 0d3d 364d a3bd 54fd 273d
00000110: 060d 153d e5b9 17bd 2f9f 9ebd 5ba9 63bc
00000120: fe3f 2c3d da9b 0c3a 0b91 aebd a593 243d
00000130: eb32 033e 158f e8bd 81bb 70bd 7455 34bc
00000140: a415 bb3c 5219 49bc 8a93 5abc 86c7 51bc
00000150: a1a5 213d cdeb a43d 135f 9cbd 412e 733d
00000160: aa65 2b3c e58d ae3d 89c1 9dbd ec5b 10bd
00000170: 5504 4e3d 4e96 af3c 993f 9b39 c5a0 adbd
00000180: 884d 08be a066 da3d a175 d53d 6cbd 803d
00000190: 6f3d 29bd d5d0 98bc e952 e5bd b5b4 76bd
000001a0: 6ac1 ad3d b190 76bd 9788 683b e758 d13d
000001b0: 374e 463b c061 5b3d f28c 74bd 5190 c33d
000001c0: 512e 563d c22d 013e 61ae 0dbd 3998 ffba
000001d0: d58f 7dbd b95d 2f3c 7253 b53c 6fdd 28bd
000001e0: 705e e5bc 5760 f0bc 9be6 87bd 21f1 8dbd
000001f0: 7553 07be c4e6 f1bd b40c 10be 3d11 86bd
00000200: e4ee b7bd c323 cc3d 9745 c5bd bde0 8a3d
00000210: e69b cabb daa9 38bd 0909 f6bc 60ca d1bd
00000220: 1038 0bbb 6b06 0abe 5b99 8ebc 889d 643d
00000230: 7156 093d 7eef c6bd d068 49bd a3ff 1a3e
00000240: 2c0c b03d 68b7 a73b 3ba9 2fbc 01a2 5ebd
00000250: dc42 163e 8bab c53d 9a17 a2bd b119 1e3d
00000260: e802 1fbe 783a d93c 17b1 f1bb f59c a93b
00000270: e891 143e f86f 2e3d 35ef 693d 7068 b6bd
00000280: 7a6b 5bbd 38c2 953d 3ecc b1bb c8d8 983d
00000290: a5f6 8cbc 87a5 2d3d 097c bf3c de24 8cbd
000002a0: 6609 293d 0892 4238 b850 56bd c733 293d
000002b0: 1f58 6d3d 60db 003e 3262 0b3c cf8c 86bd
000002c0: e80b fa3d d451 173e a58f 2bbd a7ee 3c3d
000002d0: d8b1 dfbd eb34 ecbd 6431 113d 1561 11be
000002e0: 3cbe 8cbd 857f 133b cb9a 933d ec3a f33c
000002f0: 0b98 02bb 543b 13be 5315 07be 152d e4bd
00000300: 3f4b d6bc e502 32bc cb5e 8fbd def0 873c
00000310: 6c81 5fbc 0db8 4d3c 16d6 14be bae4 05be
00000320: e560 16be c94e 0abe d112 11bc 9d2c bf3d
00000330: 54e6 04bd b1ae 553c 34cb 163c 2fbb a13c
00000340: 25d6 463c c603 ef3d bd50 403b 4082 8bbd
00000350: 93a3 d33d a565 c73c 1815 9ebd 6875 5e3b
00000360: 2c08 12be 445e b03d 89ff 38bd 79ae 04be
00000370: d253 6f3c 3f64 ef3d 6cf0 6b3d 5824 4abd
00000380: 8905 f9bd 0fe4 8dbc bcc7 b23b 801c efba
00000390: 3ec4 abbd 607e 193e b4aa 00be 49a6 1ebd
000003a0: 9adb 093e cbb2 d2bc 7017 0bbe 739e 76ba
000003b0: 3b81 da3d 79de 033e 3939 c8bd aecf a7bd
000003c0: db6e 943d 3896 763d 73f3 5b3c 7a07 933c
000003d0: d674 edbc 610a b2bb 17bc 993d 9888 a7bd
000003e0: 70f8 b7bd eb19 cdbd 3600 853c c6e3 05bc
000003f0: 92e1 08bd 9a75 acbd 3b10 06be bbcd b6bd
